<?xml version="1.0"?>
<net name="TensorFlow_Frontend_IR" version="11">
	<layers>
		<layer id="1" name="input_rgb" type="Parameter" version="opset1">
			<data shape="1,224,224,3" element_type="f32" />
			<rt_info>
				<attribute name="old_api_map_element_type" version="0" value="f16" />
			</rt_info>
			<output>
				<port id="0" precision="FP32" names="input_rgb,input_rgb:0">
					<dim>1</dim>
					<dim>224</dim>
					<dim>224</dim>
					<dim>3</dim>
				</port>
			</output>
		</layer>
		<layer id="0" name="input_3" type="Parameter" version="opset1">
			<data shape="1,224,224,1" element_type="f32" />
			<rt_info>
				<attribute name="old_api_map_element_type" version="0" value="f16" />
			</rt_info>
			<output>
				<port id="0" precision="FP32" names="input_3,input_3:0">
					<dim>1</dim>
					<dim>224</dim>
					<dim>224</dim>
					<dim>1</dim>
				</port>
			</output>
		</layer>
		<layer id="2" name="Constant_20776" type="Const" version="opset1">
			<data element_type="i64" shape="4" offset="0" size="32" />
			<output>
				<port id="0" precision="I64">
					<dim>4</dim>
				</port>
			</output>
		</layer>
		<layer id="3" name="Transpose_20777" type="Transpose" version="opset1">
			<input>
				<port id="0" precision="FP32">
					<dim>1</dim>
					<dim>224</dim>
					<dim>224</dim>
					<dim>3</dim>
				</port>
				<port id="1" precision="I64">
					<dim>4</dim>
				</port>
			</input>
			<output>
				<port id="2" precision="FP32">
					<dim>1</dim>
					<dim>3</dim>
					<dim>224</dim>
					<dim>224</dim>
				</port>
			</output>
		</layer>
		<layer id="4" name="Constant_24681_compressed" type="Const" version="opset1">
			<data element_type="f16" shape="1, 3, 1, 1" offset="32" size="6" />
			<output>
				<port id="0" precision="FP16">
					<dim>1</dim>
					<dim>3</dim>
					<dim>1</dim>
					<dim>1</dim>
				</port>
			</output>
		</layer>
		<layer id="5" name="Constant_24681" type="Convert" version="opset1">
			<data destination_type="f32" />
			<rt_info>
				<attribute name="decompression" version="0" />
			</rt_info>
			<input>
				<port id="0" precision="FP16">
					<dim>1</dim>
					<dim>3</dim>
					<dim>1</dim>
					<dim>1</dim>
				</port>
			</input>
			<output>
				<port id="1" precision="FP32">
					<dim>1</dim>
					<dim>3</dim>
					<dim>1</dim>
					<dim>1</dim>
				</port>
			</output>
		</layer>
		<layer id="6" name="Multiply_24676" type="Multiply" version="opset1">
			<data auto_broadcast="numpy" />
			<input>
				<port id="0" precision="FP32">
					<dim>1</dim>
					<dim>3</dim>
					<dim>224</dim>
					<dim>224</dim>
				</port>
				<port id="1" precision="FP32">
					<dim>1</dim>
					<dim>3</dim>
					<dim>1</dim>
					<dim>1</dim>
				</port>
			</input>
			<output>
				<port id="2" precision="FP32">
					<dim>1</dim>
					<dim>3</dim>
					<dim>224</dim>
					<dim>224</dim>
				</port>
			</output>
		</layer>
		<layer id="7" name="Constant_24678_compressed" type="Const" version="opset1">
			<data element_type="f16" shape="1, 3, 1, 1" offset="38" size="6" />
			<output>
				<port id="0" precision="FP16">
					<dim>1</dim>
					<dim>3</dim>
					<dim>1</dim>
					<dim>1</dim>
				</port>
			</output>
		</layer>
		<layer id="8" name="Constant_24678" type="Convert" version="opset1">
			<data destination_type="f32" />
			<rt_info>
				<attribute name="decompression" version="0" />
			</rt_info>
			<input>
				<port id="0" precision="FP16">
					<dim>1</dim>
					<dim>3</dim>
					<dim>1</dim>
					<dim>1</dim>
				</port>
			</input>
			<output>
				<port id="1" precision="FP32">
					<dim>1</dim>
					<dim>3</dim>
					<dim>1</dim>
					<dim>1</dim>
				</port>
			</output>
		</layer>
		<layer id="9" name="Transpose_3465" type="Add" version="opset1">
			<data auto_broadcast="numpy" />
			<input>
				<port id="0" precision="FP32">
					<dim>1</dim>
					<dim>3</dim>
					<dim>224</dim>
					<dim>224</dim>
				</port>
				<port id="1" precision="FP32">
					<dim>1</dim>
					<dim>3</dim>
					<dim>1</dim>
					<dim>1</dim>
				</port>
			</input>
			<output>
				<port id="2" precision="FP32" names="model/efficientnetv2-b0/normalization/truediv,model/efficientnetv2-b0/normalization/truediv:0">
					<dim>1</dim>
					<dim>3</dim>
					<dim>224</dim>
					<dim>224</dim>
				</port>
			</output>
		</layer>
		<layer id="10" name="Multiply_26533_compressed" type="Const" version="opset1">
			<data element_type="f16" shape="32, 3, 3, 3" offset="44" size="1728" />
			<output>
				<port id="0" precision="FP16">
					<dim>32</dim>
					<dim>3</dim>
					<dim>3</dim>
					<dim>3</dim>
				</port>
			</output>
		</layer>
		<layer id="11" name="Multiply_26533" type="Convert" version="opset1">
			<data destination_type="f32" />
			<rt_info>
				<attribute name="decompression" version="0" />
			</rt_info>
			<input>
				<port id="0" precision="FP16">
					<dim>32</dim>
					<dim>3</dim>
					<dim>3</dim>
					<dim>3</dim>
				</port>
			</input>
			<output>
				<port id="1" precision="FP32">
					<dim>32</dim>
					<dim>3</dim>
					<dim>3</dim>
					<dim>3</dim>
				</port>
			</output>
		</layer>
		<layer id="12" name="Multiply_24687" type="Convolution" version="opset1">
			<data strides="2, 2" dilations="1, 1" pads_begin="0, 0" pads_end="0, 0" auto_pad="same_upper" />
			<input>
				<port id="0" precision="FP32">
					<dim>1</dim>
					<dim>3</dim>
					<dim>224</dim>
					<dim>224</dim>
				</port>
				<port id="1" precision="FP32">
					<dim>32</dim>
					<dim>3</dim>
					<dim>3</dim>
					<dim>3</dim>
				</port>
			</input>
			<output>
				<port id="2" precision="FP32">
					<dim>1</dim>
					<dim>32</dim>
					<dim>112</dim>
					<dim>112</dim>
				</port>
			</output>
		</layer>
		<layer id="13" name="Constant_24695_compressed" type="Const" version="opset1">
			<data element_type="f16" shape="1, 32, 1, 1" offset="1772" size="64" />
			<output>
				<port id="0" precision="FP16">
					<dim>1</dim>
					<dim>32</dim>
					<dim>1</dim>
					<dim>1</dim>
				</port>
			</output>
		</layer>
		<layer id="14" name="Constant_24695" type="Convert" version="opset1">
			<data destination_type="f32" />
			<rt_info>
				<attribute name="decompression" version="0" />
			</rt_info>
			<input>
				<port id="0" precision="FP16">
					<dim>1</dim>
					<dim>32</dim>
					<dim>1</dim>
					<dim>1</dim>
				</port>
			</input>
			<output>
				<port id="1" precision="FP32">
					<dim>1</dim>
					<dim>32</dim>
					<dim>1</dim>
					<dim>1</dim>
				</port>
			</output>
		</layer>
		<layer id="15" name="Transpose_6354" type="Add" version="opset1">
			<data auto_broadcast="numpy" />
			<input>
				<port id="0" precision="FP32">
					<dim>1</dim>
					<dim>32</dim>
					<dim>112</dim>
					<dim>112</dim>
				</port>
				<port id="1" precision="FP32">
					<dim>1</dim>
					<dim>32</dim>
					<dim>1</dim>
					<dim>1</dim>
				</port>
			</input>
			<output>
				<port id="2" precision="FP32">
					<dim>1</dim>
					<dim>32</dim>
					<dim>112</dim>
					<dim>112</dim>
				</port>
			</output>
		</layer>
		<layer id="16" name="Transpose_6366" type="Swish" version="opset4">
			<input>
				<port id="0" precision="FP32">
					<dim>1</dim>
					<dim>32</dim>
					<dim>112</dim>
					<dim>112</dim>
				</port>
			</input>
			<output>
				<port id="1" precision="FP32">
					<dim>1</dim>
					<dim>32</dim>
					<dim>112</dim>
					<dim>112</dim>
				</port>
			</output>
		</layer>
		<layer id="17" name="Multiply_26537_compressed" type="Const" version="opset1">
			<data element_type="f16" shape="16, 32, 3, 3" offset="1836" size="9216" />
			<output>
				<port id="0" precision="FP16">
					<dim>16</dim>
					<dim>32</dim>
					<dim>3</dim>
					<dim>3</dim>
				</port>
			</output>
		</layer>
		<layer id="18" name="Multiply_26537" type="Convert" version="opset1">
			<data destination_type="f32" />
			<rt_info>
				<attribute name="decompression" version="0" />
			</rt_info>
			<input>
				<port id="0" precision="FP16">
					<dim>16</dim>
					<dim>32</dim>
					<dim>3</dim>
					<dim>3</dim>
				</port>
			</input>
			<output>
				<port id="1" precision="FP32">
					<dim>16</dim>
					<dim>32</dim>
					<dim>3</dim>
					<dim>3</dim>
				</port>
			</output>
		</layer>
		<layer id="19" name="Multiply_24701" type="Convolution" version="opset1">
			<data strides="1, 1" dilations="1, 1" pads_begin="0, 0" pads_end="0, 0" auto_pad="same_upper" />
			<input>
				<port id="0" precision="FP32">
					<dim>1</dim>
					<dim>32</dim>
					<dim>112</dim>
					<dim>112</dim>
				</port>
				<port id="1" precision="FP32">
					<dim>16</dim>
					<dim>32</dim>
					<dim>3</dim>
					<dim>3</dim>
				</port>
			</input>
			<output>
				<port id="2" precision="FP32">
					<dim>1</dim>
					<dim>16</dim>
					<dim>112</dim>
					<dim>112</dim>
				</port>
			</output>
		</layer>
		<layer id="20" name="Constant_24709_compressed" type="Const" version="opset1">
			<data element_type="f16" shape="1, 16, 1, 1" offset="11052" size="32" />
			<output>
				<port id="0" precision="FP16">
					<dim>1</dim>
					<dim>16</dim>
					<dim>1</dim>
					<dim>1</dim>
				</port>
			</output>
		</layer>
		<layer id="21" name="Constant_24709" type="Convert" version="opset1">
			<data destination_type="f32" />
			<rt_info>
				<attribute name="decompression" version="0" />
			</rt_info>
			<input>
				<port id="0" precision="FP16">
					<dim>1</dim>
					<dim>16</dim>
					<dim>1</dim>
					<dim>1</dim>
				</port>
			</input>
			<output>
				<port id="1" precision="FP32">
					<dim>1</dim>
					<dim>16</dim>
					<dim>1</dim>
					<dim>1</dim>
				</port>
			</output>
		</layer>
		<layer id="22" name="Transpose_6418" type="Add" version="opset1">
			<data auto_broadcast="numpy" />
			<input>
				<port id="0" precision="FP32">
					<dim>1</dim>
					<dim>16</dim>
					<dim>112</dim>
					<dim>112</dim>
				</port>
				<port id="1" precision="FP32">
					<dim>1</dim>
					<dim>16</dim>
					<dim>1</dim>
					<dim>1</dim>
				</port>
			</input>
			<output>
				<port id="2" precision="FP32">
					<dim>1</dim>
					<dim>16</dim>
					<dim>112</dim>
					<dim>112</dim>
				</port>
			</output>
		</layer>
		<layer id="23" name="Transpose_6430" type="Swish" version="opset4">
			<input>
				<port id="0" precision="FP32">
					<dim>1</dim>
					<dim>16</dim>
					<dim>112</dim>
					<dim>112</dim>
				</port>
			</input>
			<output>
				<port id="1" precision="FP32">
					<dim>1</dim>
					<dim>16</dim>
					<dim>112</dim>
					<dim>112</dim>
				</port>
			</output>
		</layer>
		<layer id="24" name="Multiply_26541_compressed" type="Const" version="opset1">
			<data element_type="f16" shape="64, 16, 3, 3" offset="11084" size="18432" />
			<output>
				<port id="0" precision="FP16">
					<dim>64</dim>
					<dim>16</dim>
					<dim>3</dim>
					<dim>3</dim>
				</port>
			</output>
		</layer>
		<layer id="25" name="Multiply_26541" type="Convert" version="opset1">
			<data destination_type="f32" />
			<rt_info>
				<attribute name="decompression" version="0" />
			</rt_info>
			<input>
				<port id="0" precision="FP16">
					<dim>64</dim>
					<dim>16</dim>
					<dim>3</dim>
					<dim>3</dim>
				</port>
			</input>
			<output>
				<port id="1" precision="FP32">
					<dim>64</dim>
					<dim>16</dim>
					<dim>3</dim>
					<dim>3</dim>
				</port>
			</output>
		</layer>
		<layer id="26" name="Multiply_24715" type="Convolution" version="opset1">
			<data strides="2, 2" dilations="1, 1" pads_begin="0, 0" pads_end="0, 0" auto_pad="same_upper" />
			<input>
				<port id="0" precision="FP32">
					<dim>1</dim>
					<dim>16</dim>
					<dim>112</dim>
					<dim>112</dim>
				</port>
				<port id="1" precision="FP32">
					<dim>64</dim>
					<dim>16</dim>
					<dim>3</dim>
					<dim>3</dim>
				</port>
			</input>
			<output>
				<port id="2" precision="FP32">
					<dim>1</dim>
					<dim>64</dim>
					<dim>56</dim>
					<dim>56</dim>
				</port>
			</output>
		</layer>
		<layer id="27" name="Constant_24723_compressed" type="Const" version="opset1">
			<data element_type="f16" shape="1, 64, 1, 1" offset="29516" size="128" />
			<output>
				<port id="0" precision="FP16">
					<dim>1</dim>
					<dim>64</dim>
					<dim>1</dim>
					<dim>1</dim>
				</port>
			</output>
		</layer>
		<layer id="28" name="Constant_24723" type="Convert" version="opset1">
			<data destination_type="f32" />
			<rt_info>
				<attribute name="decompression" version="0" />
			</rt_info>
			<input>
				<port id="0" precision="FP16">
					<dim>1</dim>
					<dim>64</dim>
					<dim>1</dim>
					<dim>1</dim>
				</port>
			</input>
			<output>
				<port id="1" precision="FP32">
					<dim>1</dim>
					<dim>64</dim>
					<dim>1</dim>
					<dim>1</dim>
				</port>
			</output>
		</layer>
		<layer id="29" name="Transpose_6482" type="Add" version="opset1">
			<data auto_broadcast="numpy" />
			<input>
				<port id="0" precision="FP32">
					<dim>1</dim>
					<dim>64</dim>
					<dim>56</dim>
					<dim>56</dim>
				</port>
				<port id="1" precision="FP32">
					<dim>1</dim>
					<dim>64</dim>
					<dim>1</dim>
					<dim>1</dim>
				</port>
			</input>
			<output>
				<port id="2" precision="FP32">
					<dim>1</dim>
					<dim>64</dim>
					<dim>56</dim>
					<dim>56</dim>
				</port>
			</output>
		</layer>
		<layer id="30" name="Transpose_6494" type="Swish" version="opset4">
			<input>
				<port id="0" precision="FP32">
					<dim>1</dim>
					<dim>64</dim>
					<dim>56</dim>
					<dim>56</dim>
				</port>
			</input>
			<output>
				<port id="1" precision="FP32">
					<dim>1</dim>
					<dim>64</dim>
					<dim>56</dim>
					<dim>56</dim>
				</port>
			</output>
		</layer>
		<layer id="31" name="Multiply_26545_compressed" type="Const" version="opset1">
			<data element_type="f16" shape="32, 64, 1, 1" offset="29644" size="4096" />
			<output>
				<port id="0" precision="FP16">
					<dim>32</dim>
					<dim>64</dim>
					<dim>1</dim>
					<dim>1</dim>
				</port>
			</output>
		</layer>
		<layer id="32" name="Multiply_26545" type="Convert" version="opset1">
			<data destination_type="f32" />
			<rt_info>
				<attribute name="decompression" version="0" />
			</rt_info>
			<input>
				<port id="0" precision="FP16">
					<dim>32</dim>
					<dim>64</dim>
					<dim>1</dim>
					<dim>1</dim>
				</port>
			</input>
			<output>
				<port id="1" precision="FP32">
					<dim>32</dim>
					<dim>64</dim>
					<dim>1</dim>
					<dim>1</dim>
				</port>
			</output>
		</layer>
		<layer id="33" name="Multiply_24729" type="Convolution" version="opset1">
			<data strides="1, 1" dilations="1, 1" pads_begin="0, 0" pads_end="0, 0" auto_pad="same_upper" />
			<input>
				<port id="0" precision="FP32">
					<dim>1</dim>
					<dim>64</dim>
					<dim>56</dim>
					<dim>56</dim>
				</port>
				<port id="1" precision="FP32">
					<dim>32</dim>
					<dim>64</dim>
					<dim>1</dim>
					<dim>1</dim>
				</port>
			</input>
			<output>
				<port id="2" precision="FP32">
					<dim>1</dim>
					<dim>32</dim>
					<dim>56</dim>
					<dim>56</dim>
				</port>
			</output>
		</layer>
		<layer id="34" name="Constant_24737_compressed" type="Const" version="opset1">
			<data element_type="f16" shape="1, 32, 1, 1" offset="33740" size="64" />
			<output>
				<port id="0" precision="FP16">
					<dim>1</dim>
					<dim>32</dim>
					<dim>1</dim>
					<dim>1</dim>
				</port>
			</output>
		</layer>
		<layer id="35" name="Constant_24737" type="Convert" version="opset1">
			<data destination_type="f32" />
			<rt_info>
				<attribute name="decompression" version="0" />
			</rt_info>
			<input>
				<port id="0" precision="FP16">
					<dim>1</dim>
					<dim>32</dim>
					<dim>1</dim>
					<dim>1</dim>
				</port>
			</input>
			<output>
				<port id="1" precision="FP32">
					<dim>1</dim>
					<dim>32</dim>
					<dim>1</dim>
					<dim>1</dim>
				</port>
			</output>
		</layer>
		<layer id="36" name="Transpose_6546" type="Add" version="opset1">
			<data auto_broadcast="numpy" />
			<input>
				<port id="0" precision="FP32">
					<dim>1</dim>
					<dim>32</dim>
					<dim>56</dim>
					<dim>56</dim>
				</port>
				<port id="1" precision="FP32">
					<dim>1</dim>
					<dim>32</dim>
					<dim>1</dim>
					<dim>1</dim>
				</port>
			</input>
			<output>
				<port id="2" precision="FP32">
					<dim>1</dim>
					<dim>32</dim>
					<dim>56</dim>
					<dim>56</dim>
				</port>
			</output>
		</layer>
		<layer id="37" name="Multiply_26549_compressed" type="Const" version="opset1">
			<data element_type="f16" shape="128, 32, 3, 3" offset="33804" size="73728" />
			<output>
				<port id="0" precision="FP16">
					<dim>128</dim>
					<dim>32</dim>
					<dim>3</dim>
					<dim>3</dim>
				</port>
			</output>
		</layer>
		<layer id="38" name="Multiply_26549" type="Convert" version="opset1">
			<data destination_type="f32" />
			<rt_info>
				<attribute name="decompression" version="0" />
			</rt_info>
			<input>
				<port id="0" precision="FP16">
					<dim>128</dim>
					<dim>32</dim>
					<dim>3</dim>
					<dim>3</dim>
				</port>
			</input>
			<output>
				<port id="1" precision="FP32">
					<dim>128</dim>
					<dim>32</dim>
					<dim>3</dim>
					<dim>3</dim>
				</port>
			</output>
		</layer>
		<layer id="39" name="Multiply_24743" type="Convolution" version="opset1">
			<data strides="1, 1" dilations="1, 1" pads_begin="0, 0" pads_end="0, 0" auto_pad="same_upper" />
			<input>
				<port id="0" precision="FP32">
					<dim>1</dim>
					<dim>32</dim>
					<dim>56</dim>
					<dim>56</dim>
				</port>
				<port id="1" precision="FP32">
					<dim>128</dim>
					<dim>32</dim>
					<dim>3</dim>
					<dim>3</dim>
				</port>
			</input>
			<output>
				<port id="2" precision="FP32">
					<dim>1</dim>
					<dim>128</dim>
					<dim>56</dim>
					<dim>56</dim>
				</port>
			</output>
		</layer>
		<layer id="40" name="Constant_24751_compressed" type="Const" version="opset1">
			<data element_type="f16" shape="1, 128, 1, 1" offset="107532" size="256" />
			<output>
				<port id="0" precision="FP16">
					<dim>1</dim>
					<dim>128</dim>
					<dim>1</dim>
					<dim>1</dim>
				</port>
			</output>
		</layer>
		<layer id="41" name="Constant_24751" type="Convert" version="opset1">
			<data destination_type="f32" />
			<rt_info>
				<attribute name="decompression" version="0" />
			</rt_info>
			<input>
				<port id="0" precision="FP16">
					<dim>1</dim>
					<dim>128</dim>
					<dim>1</dim>
					<dim>1</dim>
				</port>
			</input>
			<output>
				<port id="1" precision="FP32">
					<dim>1</dim>
					<dim>128</dim>
					<dim>1</dim>
					<dim>1</dim>
				</port>
			</output>
		</layer>
		<layer id="42" name="Transpose_6598" type="Add" version="opset1">
			<data auto_broadcast="numpy" />
			<input>
				<port id="0" precision="FP32">
					<dim>1</dim>
					<dim>128</dim>
					<dim>56</dim>
					<dim>56</dim>
				</port>
				<port id="1" precision="FP32">
					<dim>1</dim>
					<dim>128</dim>
					<dim>1</dim>
					<dim>1</dim>
				</port>
			</input>
			<output>
				<port id="2" precision="FP32">
					<dim>1</dim>
					<dim>128</dim>
					<dim>56</dim>
					<dim>56</dim>
				</port>
			</output>
		</layer>
		<layer id="43" name="Transpose_6610" type="Swish" version="opset4">
			<input>
				<port id="0" precision="FP32">
					<dim>1</dim>
					<dim>128</dim>
					<dim>56</dim>
					<dim>56</dim>
				</port>
			</input>
			<output>
				<port id="1" precision="FP32">
					<dim>1</dim>
					<dim>128</dim>
					<dim>56</dim>
					<dim>56</dim>
				</port>
			</output>
		</layer>
		<layer id="44" name="Multiply_26553_compressed" type="Const" version="opset1">
			<data element_type="f16" shape="32, 128, 1, 1" offset="107788" size="8192" />
			<output>
				<port id="0" precision="FP16">
					<dim>32</dim>
					<dim>128</dim>
					<dim>1</dim>
					<dim>1</dim>
				</port>
			</output>
		</layer>
		<layer id="45" name="Multiply_26553" type="Convert" version="opset1">
			<data destination_type="f32" />
			<rt_info>
				<attribute name="decompression" version="0" />
			</rt_info>
			<input>
				<port id="0" precision="FP16">
					<dim>32</dim>
					<dim>128</dim>
					<dim>1</dim>
					<dim>1</dim>
				</port>
			</input>
			<output>
				<port id="1" precision="FP32">
					<dim>32</dim>
					<dim>128</dim>
					<dim>1</dim>
					<dim>1</dim>
				</port>
			</output>
		</layer>
		<layer id="46" name="Multiply_24757" type="Convolution" version="opset1">
			<data strides="1, 1" dilations="1, 1" pads_begin="0, 0" pads_end="0, 0" auto_pad="same_upper" />
			<input>
				<port id="0" precision="FP32">
					<dim>1</dim>
					<dim>128</dim>
					<dim>56</dim>
					<dim>56</dim>
				</port>
				<port id="1" precision="FP32">
					<dim>32</dim>
					<dim>128</dim>
					<dim>1</dim>
					<dim>1</dim>
				</port>
			</input>
			<output>
				<port id="2" precision="FP32">
					<dim>1</dim>
					<dim>32</dim>
					<dim>56</dim>
					<dim>56</dim>
				</port>
			</output>
		</layer>
		<layer id="47" name="Constant_24765_compressed" type="Const" version="opset1">
			<data element_type="f16" shape="1, 32, 1, 1" offset="115980" size="64" />
			<output>
				<port id="0" precision="FP16">
					<dim>1</dim>
					<dim>32</dim>
					<dim>1</dim>
					<dim>1</dim>
				</port>
			</output>
		</layer>
		<layer id="48" name="Constant_24765" type="Convert" version="opset1">
			<data destination_type="f32" />
			<rt_info>
				<attribute name="decompression" version="0" />
			</rt_info>
			<input>
				<port id="0" precision="FP16">
					<dim>1</dim>
					<dim>32</dim>
					<dim>1</dim>
					<dim>1</dim>
				</port>
			</input>
			<output>
				<port id="1" precision="FP32">
					<dim>1</dim>
					<dim>32</dim>
					<dim>1</dim>
					<dim>1</dim>
				</port>
			</output>
		</layer>
		<layer id="49" name="Transpose_6662" type="Add" version="opset1">
			<data auto_broadcast="numpy" />
			<input>
				<port id="0" precision="FP32">
					<dim>1</dim>
					<dim>32</dim>
					<dim>56</dim>
					<dim>56</dim>
				</port>
				<port id="1" precision="FP32">
					<dim>1</dim>
					<dim>32</dim>
					<dim>1</dim>
					<dim>1</dim>
				</port>
			</input>
			<output>
				<port id="2" precision="FP32">
					<dim>1</dim>
					<dim>32</dim>
					<dim>56</dim>
					<dim>56</dim>
				</port>
			</output>
		</layer>
		<layer id="50" name="Transpose_6666" type="Add" version="opset1">
			<data auto_broadcast="numpy" />
			<input>
				<port id="0" precision="FP32">
					<dim>1</dim>
					<dim>32</dim>
					<dim>56</dim>
					<dim>56</dim>
				</port>
				<port id="1" precision="FP32">
					<dim>1</dim>
					<dim>32</dim>
					<dim>56</dim>
					<dim>56</dim>
				</port>
			</input>
			<output>
				<port id="2" precision="FP32">
					<dim>1</dim>
					<dim>32</dim>
					<dim>56</dim>
					<dim>56</dim>
				</port>
			</output>
		</layer>
		<layer id="51" name="Multiply_26557_compressed" type="Const" version="opset1">
			<data element_type="f16" shape="128, 32, 3, 3" offset="116044" size="73728" />
			<output>
				<port id="0" precision="FP16">
					<dim>128</dim>
					<dim>32</dim>
					<dim>3</dim>
					<dim>3</dim>
				</port>
			</output>
		</layer>
		<layer id="52" name="Multiply_26557" type="Convert" version="opset1">
			<data destination_type="f32" />
			<rt_info>
				<attribute name="decompression" version="0" />
			</rt_info>
			<input>
				<port id="0" precision="FP16">
					<dim>128</dim>
					<dim>32</dim>
					<dim>3</dim>
					<dim>3</dim>
				</port>
			</input>
			<output>
				<port id="1" precision="FP32">
					<dim>128</dim>
					<dim>32</dim>
					<dim>3</dim>
					<dim>3</dim>
				</port>
			</output>
		</layer>
		<layer id="53" name="Multiply_24771" type="Convolution" version="opset1">
			<data strides="2, 2" dilations="1, 1" pads_begin="0, 0" pads_end="0, 0" auto_pad="same_upper" />
			<input>
				<port id="0" precision="FP32">
					<dim>1</dim>
					<dim>32</dim>
					<dim>56</dim>
					<dim>56</dim>
				</port>
				<port id="1" precision="FP32">
					<dim>128</dim>
					<dim>32</dim>
					<dim>3</dim>
					<dim>3</dim>
				</port>
			</input>
			<output>
				<port id="2" precision="FP32">
					<dim>1</dim>
					<dim>128</dim>
					<dim>28</dim>
					<dim>28</dim>
				</port>
			</output>
		</layer>
		<layer id="54" name="Constant_24779_compressed" type="Const" version="opset1">
			<data element_type="f16" shape="1, 128, 1, 1" offset="189772" size="256" />
			<output>
				<port id="0" precision="FP16">
					<dim>1</dim>
					<dim>128</dim>
					<dim>1</dim>
					<dim>1</dim>
				</port>
			</output>
		</layer>
		<layer id="55" name="Constant_24779" type="Convert" version="opset1">
			<data destination_type="f32" />
			<rt_info>
				<attribute name="decompression" version="0" />
			</rt_info>
			<input>
				<port id="0" precision="FP16">
					<dim>1</dim>
					<dim>128</dim>
					<dim>1</dim>
					<dim>1</dim>
				</port>
			</input>
			<output>
				<port id="1" precision="FP32">
					<dim>1</dim>
					<dim>128</dim>
					<dim>1</dim>
					<dim>1</dim>
				</port>
			</output>
		</layer>
		<layer id="56" name="Transpose_6718" type="Add" version="opset1">
			<data auto_broadcast="numpy" />
			<input>
				<port id="0" precision="FP32">
					<dim>1</dim>
					<dim>128</dim>
					<dim>28</dim>
					<dim>28</dim>
				</port>
				<port id="1" precision="FP32">
					<dim>1</dim>
					<dim>128</dim>
					<dim>1</dim>
					<dim>1</dim>
				</port>
			</input>
			<output>
				<port id="2" precision="FP32">
					<dim>1</dim>
					<dim>128</dim>
					<dim>28</dim>
					<dim>28</dim>
				</port>
			</output>
		</layer>
		<layer id="57" name="Transpose_6730" type="Swish" version="opset4">
			<input>
				<port id="0" precision="FP32">
					<dim>1</dim>
					<dim>128</dim>
					<dim>28</dim>
					<dim>28</dim>
				</port>
			</input>
			<output>
				<port id="1" precision="FP32">
					<dim>1</dim>
					<dim>128</dim>
					<dim>28</dim>
					<dim>28</dim>
				</port>
			</output>
		</layer>
		<layer id="58" name="Multiply_26561_compressed" type="Const" version="opset1">
			<data element_type="f16" shape="48, 128, 1, 1" offset="190028" size="12288" />
			<output>
				<port id="0" precision="FP16">
					<dim>48</dim>
					<dim>128</dim>
					<dim>1</dim>
					<dim>1</dim>
				</port>
			</output>
		</layer>
		<layer id="59" name="Multiply_26561" type="Convert" version="opset1">
			<data destination_type="f32" />
			<rt_info>
				<attribute name="decompression" version="0" />
			</rt_info>
			<input>
				<port id="0" precision="FP16">
					<dim>48</dim>
					<dim>128</dim>
					<dim>1</dim>
					<dim>1</dim>
				</port>
			</input>
			<output>
				<port id="1" precision="FP32">
					<dim>48</dim>
					<dim>128</dim>
					<dim>1</dim>
					<dim>1</dim>
				</port>
			</output>
		</layer>
		<layer id="60" name="Multiply_24785" type="Convolution" version="opset1">
			<data strides="1, 1" dilations="1, 1" pads_begin="0, 0" pads_end="0, 0" auto_pad="same_upper" />
			<input>
				<port id="0" precision="FP32">
					<dim>1</dim>
					<dim>128</dim>
					<dim>28</dim>
					<dim>28</dim>
				</port>
				<port id="1" precision="FP32">
					<dim>48</dim>
					<dim>128</dim>
					<dim>1</dim>
					<dim>1</dim>
				</port>
			</input>
			<output>
				<port id="2" precision="FP32">
					<dim>1</dim>
					<dim>48</dim>
					<dim>28</dim>
					<dim>28</dim>
				</port>
			</output>
		</layer>
		<layer id="61" name="Constant_24793_compressed" type="Const" version="opset1">
			<data element_type="f16" shape="1, 48, 1, 1" offset="202316" size="96" />
			<output>
				<port id="0" precision="FP16">
					<dim>1</dim>
					<dim>48</dim>
					<dim>1</dim>
					<dim>1</dim>
				</port>
			</output>
		</layer>
		<layer id="62" name="Constant_24793" type="Convert" version="opset1">
			<data destination_type="f32" />
			<rt_info>
				<attribute name="decompression" version="0" />
			</rt_info>
			<input>
				<port id="0" precision="FP16">
					<dim>1</dim>
					<dim>48</dim>
					<dim>1</dim>
					<dim>1</dim>
				</port>
			</input>
			<output>
				<port id="1" precision="FP32">
					<dim>1</dim>
					<dim>48</dim>
					<dim>1</dim>
					<dim>1</dim>
				</port>
			</output>
		</layer>
		<layer id="63" name="Transpose_6782" type="Add" version="opset1">
			<data auto_broadcast="numpy" />
			<input>
				<port id="0" precision="FP32">
					<dim>1</dim>
					<dim>48</dim>
					<dim>28</dim>
					<dim>28</dim>
				</port>
				<port id="1" precision="FP32">
					<dim>1</dim>
					<dim>48</dim>
					<dim>1</dim>
					<dim>1</dim>
				</port>
			</input>
			<output>
				<port id="2" precision="FP32">
					<dim>1</dim>
					<dim>48</dim>
					<dim>28</dim>
					<dim>28</dim>
				</port>
			</output>
		</layer>
		<layer id="64" name="Multiply_26565_compressed" type="Const" version="opset1">
			<data element_type="f16" shape="192, 48, 3, 3" offset="202412" size="165888" />
			<output>
				<port id="0" precision="FP16">
					<dim>192</dim>
					<dim>48</dim>
					<dim>3</dim>
					<dim>3</dim>
				</port>
			</output>
		</layer>
		<layer id="65" name="Multiply_26565" type="Convert" version="opset1">
			<data destination_type="f32" />
			<rt_info>
				<attribute name="decompression" version="0" />
			</rt_info>
			<input>
				<port id="0" precision="FP16">
					<dim>192</dim>
					<dim>48</dim>
					<dim>3</dim>
					<dim>3</dim>
				</port>
			</input>
			<output>
				<port id="1" precision="FP32">
					<dim>192</dim>
					<dim>48</dim>
					<dim>3</dim>
					<dim>3</dim>
				</port>
			</output>
		</layer>
		<layer id="66" name="Multiply_24799" type="Convolution" version="opset1">
			<data strides="1, 1" dilations="1, 1" pads_begin="0, 0" pads_end="0, 0" auto_pad="same_upper" />
			<input>
				<port id="0" precision="FP32">
					<dim>1</dim>
					<dim>48</dim>
					<dim>28</dim>
					<dim>28</dim>
				</port>
				<port id="1" precision="FP32">
					<dim>192</dim>
					<dim>48</dim>
					<dim>3</dim>
					<dim>3</dim>
				</port>
			</input>
			<output>
				<port id="2" precision="FP32">
					<dim>1</dim>
					<dim>192</dim>
					<dim>28</dim>
					<dim>28</dim>
				</port>
			</output>
		</layer>
		<layer id="67" name="Constant_24807_compressed" type="Const" version="opset1">
			<data element_type="f16" shape="1, 192, 1, 1" offset="368300" size="384" />
			<output>
				<port id="0" precision="FP16">
					<dim>1</dim>
					<dim>192</dim>
					<dim>1</dim>
					<dim>1</dim>
				</port>
			</output>
		</layer>
		<layer id="68" name="Constant_24807" type="Convert" version="opset1">
			<data destination_type="f32" />
			<rt_info>
				<attribute name="decompression" version="0" />
			</rt_info>
			<input>
				<port id="0" precision="FP16">
					<dim>1</dim>
					<dim>192</dim>
					<dim>1</dim>
					<dim>1</dim>
				</port>
			</input>
			<output>
				<port id="1" precision="FP32">
					<dim>1</dim>
					<dim>192</dim>
					<dim>1</dim>
					<dim>1</dim>
				</port>
			</output>
		</layer>
		<layer id="69" name="Transpose_6834" type="Add" version="opset1">
			<data auto_broadcast="numpy" />
			<input>
				<port id="0" precision="FP32">
					<dim>1</dim>
					<dim>192</dim>
					<dim>28</dim>
					<dim>28</dim>
				</port>
				<port id="1" precision="FP32">
					<dim>1</dim>
					<dim>192</dim>
					<dim>1</dim>
					<dim>1</dim>
				</port>
			</input>
			<output>
				<port id="2" precision="FP32">
					<dim>1</dim>
					<dim>192</dim>
					<dim>28</dim>
					<dim>28</dim>
				</port>
			</output>
		</layer>
		<layer id="70" name="Transpose_6846" type="Swish" version="opset4">
			<input>
				<port id="0" precision="FP32">
					<dim>1</dim>
					<dim>192</dim>
					<dim>28</dim>
					<dim>28</dim>
				</port>
			</input>
			<output>
				<port id="1" precision="FP32">
					<dim>1</dim>
					<dim>192</dim>
					<dim>28</dim>
					<dim>28</dim>
				</port>
			</output>
		</layer>
		<layer id="71" name="Multiply_26569_compressed" type="Const" version="opset1">
			<data element_type="f16" shape="48, 192, 1, 1" offset="368684" size="18432" />
			<output>
				<port id="0" precision="FP16">
					<dim>48</dim>
					<dim>192</dim>
					<dim>1</dim>
					<dim>1</dim>
				</port>
			</output>
		</layer>
		<layer id="72" name="Multiply_26569" type="Convert" version="opset1">
			<data destination_type="f32" />
			<rt_info>
				<attribute name="decompression" version="0" />
			</rt_info>
			<input>
				<port id="0" precision="FP16">
					<dim>48</dim>
					<dim>192</dim>
					<dim>1</dim>
					<dim>1</dim>
				</port>
			</input>
			<output>
				<port id="1" precision="FP32">
					<dim>48</dim>
					<dim>192</dim>
					<dim>1</dim>
					<dim>1</dim>
				</port>
			</output>
		</layer>
		<layer id="73" name="Multiply_24813" type="Convolution" version="opset1">
			<data strides="1, 1" dilations="1, 1" pads_begin="0, 0" pads_end="0, 0" auto_pad="same_upper" />
			<input>
				<port id="0" precision="FP32">
					<dim>1</dim>
					<dim>192</dim>
					<dim>28</dim>
					<dim>28</dim>
				</port>
				<port id="1" precision="FP32">
					<dim>48</dim>
					<dim>192</dim>
					<dim>1</dim>
					<dim>1</dim>
				</port>
			</input>
			<output>
				<port id="2" precision="FP32">
					<dim>1</dim>
					<dim>48</dim>
					<dim>28</dim>
					<dim>28</dim>
				</port>
			</output>
		</layer>
		<layer id="74" name="Constant_24821_compressed" type="Const" version="opset1">
			<data element_type="f16" shape="1, 48, 1, 1" offset="387116" size="96" />
			<output>
				<port id="0" precision="FP16">
					<dim>1</dim>
					<dim>48</dim>
					<dim>1</dim>
					<dim>1</dim>
				</port>
			</output>
		</layer>
		<layer id="75" name="Constant_24821" type="Convert" version="opset1">
			<data destination_type="f32" />
			<rt_info>
				<attribute name="decompression" version="0" />
			</rt_info>
			<input>
				<port id="0" precision="FP16">
					<dim>1</dim>
					<dim>48</dim>
					<dim>1</dim>
					<dim>1</dim>
				</port>
			</input>
			<output>
				<port id="1" precision="FP32">
					<dim>1</dim>
					<dim>48</dim>
					<dim>1</dim>
					<dim>1</dim>
				</port>
			</output>
		</layer>
		<layer id="76" name="Transpose_6898" type="Add" version="opset1">
			<data auto_broadcast="numpy" />
			<input>
				<port id="0" precision="FP32">
					<dim>1</dim>
					<dim>48</dim>
					<dim>28</dim>
					<dim>28</dim>
				</port>
				<port id="1" precision="FP32">
					<dim>1</dim>
					<dim>48</dim>
					<dim>1</dim>
					<dim>1</dim>
				</port>
			</input>
			<output>
				<port id="2" precision="FP32">
					<dim>1</dim>
					<dim>48</dim>
					<dim>28</dim>
					<dim>28</dim>
				</port>
			</output>
		</layer>
		<layer id="77" name="Transpose_6902" type="Add" version="opset1">
			<data auto_broadcast="numpy" />
			<input>
				<port id="0" precision="FP32">
					<dim>1</dim>
					<dim>48</dim>
					<dim>28</dim>
					<dim>28</dim>
				</port>
				<port id="1" precision="FP32">
					<dim>1</dim>
					<dim>48</dim>
					<dim>28</dim>
					<dim>28</dim>
				</port>
			</input>
			<output>
				<port id="2" precision="FP32">
					<dim>1</dim>
					<dim>48</dim>
					<dim>28</dim>
					<dim>28</dim>
				</port>
			</output>
		</layer>
		<layer id="78" name="Multiply_26573_compressed" type="Const" version="opset1">
			<data element_type="f16" shape="192, 48, 1, 1" offset="387212" size="18432" />
			<output>
				<port id="0" precision="FP16">
					<dim>192</dim>
					<dim>48</dim>
					<dim>1</dim>
					<dim>1</dim>
				</port>
			</output>
		</layer>
		<layer id="79" name="Multiply_26573" type="Convert" version="opset1">
			<data destination_type="f32" />
			<rt_info>
				<attribute name="decompression" version="0" />
			</rt_info>
			<input>
				<port id="0" precision="FP16">
					<dim>192</dim>
					<dim>48</dim>
					<dim>1</dim>
					<dim>1</dim>
				</port>
			</input>
			<output>
				<port id="1" precision="FP32">
					<dim>192</dim>
					<dim>48</dim>
					<dim>1</dim>
					<dim>1</dim>
				</port>
			</output>
		</layer>
		<layer id="80" name="Multiply_24827" type="Convolution" version="opset1">
			<data strides="1, 1" dilations="1, 1" pads_begin="0, 0" pads_end="0, 0" auto_pad="same_upper" />
			<input>
				<port id="0" precision="FP32">
					<dim>1</dim>
					<dim>48</dim>
					<dim>28</dim>
					<dim>28</dim>
				</port>
				<port id="1" precision="FP32">
					<dim>192</dim>
					<dim>48</dim>
					<dim>1</dim>
					<dim>1</dim>
				</port>
			</input>
			<output>
				<port id="2" precision="FP32">
					<dim>1</dim>
					<dim>192</dim>
					<dim>28</dim>
					<dim>28</dim>
				</port>
			</output>
		</layer>
		<layer id="81" name="Constant_24835_compressed" type="Const" version="opset1">
			<data element_type="f16" shape="1, 192, 1, 1" offset="405644" size="384" />
			<output>
				<port id="0" precision="FP16">
					<dim>1</dim>
					<dim>192</dim>
					<dim>1</dim>
					<dim>1</dim>
				</port>
			</output>
		</layer>
		<layer id="82" name="Constant_24835" type="Convert" version="opset1">
			<data destination_type="f32" />
			<rt_info>
				<attribute name="decompression" version="0" />
			</rt_info>
			<input>
				<port id="0" precision="FP16">
					<dim>1</dim>
					<dim>192</dim>
					<dim>1</dim>
					<dim>1</dim>
				</port>
			</input>
			<output>
				<port id="1" precision="FP32">
					<dim>1</dim>
					<dim>192</dim>
					<dim>1</dim>
					<dim>1</dim>
				</port>
			</output>
		</layer>
		<layer id="83" name="Transpose_6954" type="Add" version="opset1">
			<data auto_broadcast="numpy" />
			<input>
				<port id="0" precision="FP32">
					<dim>1</dim>
					<dim>192</dim>
					<dim>28</dim>
					<dim>28</dim>
				</port>
				<port id="1" precision="FP32">
					<dim>1</dim>
					<dim>192</dim>
					<dim>1</dim>
					<dim>1</dim>
				</port>
			</input>
			<output>
				<port id="2" precision="FP32">
					<dim>1</dim>
					<dim>192</dim>
					<dim>28</dim>
					<dim>28</dim>
				</port>
			</output>
		</layer>
		<layer id="84" name="Transpose_6966" type="Swish" version="opset4">
			<input>
				<port id="0" precision="FP32">
					<dim>1</dim>
					<dim>192</dim>
					<dim>28</dim>
					<dim>28</dim>
				</port>
			</input>
			<output>
				<port id="1" precision="FP32">
					<dim>1</dim>
					<dim>192</dim>
					<dim>28</dim>
					<dim>28</dim>
				</port>
			</output>
		</layer>
		<layer id="85" name="Multiply_26577_compressed" type="Const" version="opset1">
			<data element_type="f16" shape="192, 1, 1, 3, 3" offset="406028" size="3456" />
			<output>
				<port id="0" precision="FP16">
					<dim>192</dim>
					<dim>1</dim>
					<dim>1</dim>
					<dim>3</dim>
					<dim>3</dim>
				</port>
			</output>
		</layer>
		<layer id="86" name="Multiply_26577" type="Convert" version="opset1">
			<data destination_type="f32" />
			<rt_info>
				<attribute name="decompression" version="0" />
			</rt_info>
			<input>
				<port id="0" precision="FP16">
					<dim>192</dim>
					<dim>1</dim>
					<dim>1</dim>
					<dim>3</dim>
					<dim>3</dim>
				</port>
			</input>
			<output>
				<port id="1" precision="FP32">
					<dim>192</dim>
					<dim>1</dim>
					<dim>1</dim>
					<dim>3</dim>
					<dim>3</dim>
				</port>
			</output>
		</layer>
		<layer id="87" name="Multiply_24841" type="GroupConvolution" version="opset1">
			<data strides="2, 2" pads_begin="0, 0" pads_end="0, 0" dilations="1, 1" auto_pad="same_upper" />
			<input>
				<port id="0" precision="FP32">
					<dim>1</dim>
					<dim>192</dim>
					<dim>28</dim>
					<dim>28</dim>
				</port>
				<port id="1" precision="FP32">
					<dim>192</dim>
					<dim>1</dim>
					<dim>1</dim>
					<dim>3</dim>
					<dim>3</dim>
				</port>
			</input>
			<output>
				<port id="2" precision="FP32">
					<dim>1</dim>
					<dim>192</dim>
					<dim>14</dim>
					<dim>14</dim>
				</port>
			</output>
		</layer>
		<layer id="88" name="Constant_24849_compressed" type="Const" version="opset1">
			<data element_type="f16" shape="1, 192, 1, 1" offset="409484" size="384" />
			<output>
				<port id="0" precision="FP16">
					<dim>1</dim>
					<dim>192</dim>
					<dim>1</dim>
					<dim>1</dim>
				</port>
			</output>
		</layer>
		<layer id="89" name="Constant_24849" type="Convert" version="opset1">
			<data destination_type="f32" />
			<rt_info>
				<attribute name="decompression" version="0" />
			</rt_info>
			<input>
				<port id="0" precision="FP16">
					<dim>1</dim>
					<dim>192</dim>
					<dim>1</dim>
					<dim>1</dim>
				</port>
			</input>
			<output>
				<port id="1" precision="FP32">
					<dim>1</dim>
					<dim>192</dim>
					<dim>1</dim>
					<dim>1</dim>
				</port>
			</output>
		</layer>
		<layer id="90" name="Transpose_7018" type="Add" version="opset1">
			<data auto_broadcast="numpy" />
			<input>
				<port id="0" precision="FP32">
					<dim>1</dim>
					<dim>192</dim>
					<dim>14</dim>
					<dim>14</dim>
				</port>
				<port id="1" precision="FP32">
					<dim>1</dim>
					<dim>192</dim>
					<dim>1</dim>
					<dim>1</dim>
				</port>
			</input>
			<output>
				<port id="2" precision="FP32">
					<dim>1</dim>
					<dim>192</dim>
					<dim>14</dim>
					<dim>14</dim>
				</port>
			</output>
		</layer>
		<layer id="91" name="Transpose_7030" type="Swish" version="opset4">
			<input>
				<port id="0" precision="FP32">
					<dim>1</dim>
					<dim>192</dim>
					<dim>14</dim>
					<dim>14</dim>
				</port>
			</input>
			<output>
				<port id="1" precision="FP32">
					<dim>1</dim>
					<dim>192</dim>
					<dim>14</dim>
					<dim>14</dim>
				</port>
			</output>
		</layer>
		<layer id="92" name="Constant_7032" type="Const" version="opset1">
			<data element_type="i32" shape="2" offset="409868" size="8" />
			<output>
				<port id="0" precision="I32">
					<dim>2</dim>
				</port>
			</output>
		</layer>
		<layer id="93" name="Transpose_7034" type="ReduceMean" version="opset1">
			<data keep_dims="false" />
			<input>
				<port id="0" precision="FP32">
					<dim>1</dim>
					<dim>192</dim>
					<dim>14</dim>
					<dim>14</dim>
				</port>
				<port id="1" precision="I32">
					<dim>2</dim>
				</port>
			</input>
			<output>
				<port id="2" precision="FP32" names="model/efficientnetv2-b0/block4a_se_squeeze/Mean,model/efficientnetv2-b0/block4a_se_squeeze/Mean:0">
					<dim>1</dim>
					<dim>192</dim>
				</port>
			</output>
		</layer>
		<layer id="94" name="Gather_7036" type="ShapeOf" version="opset3">
			<data output_type="i32" />
			<input>
				<port id="0" precision="FP32">
					<dim>1</dim>
					<dim>192</dim>
				</port>
			</input>
			<output>
				<port id="1" precision="I32" names="model/efficientnetv2-b0/block4a_se_reshape/Shape,model/efficientnetv2-b0/block4a_se_reshape/Shape:0">
					<dim>2</dim>
				</port>
			</output>
		</layer>
		<layer id="95" name="model/efficientnetv2-b0/block4a_se_reshape/strided_slice/stack" type="Const" version="opset1">
			<data element_type="i32" shape="1" offset="409876" size="4" />
			<rt_info>
				<attribute name="precise" version="0" />
			</rt_info>
			<output>
				<port id="0" precision="I32" names="model/efficientnetv2-b0/block4a_se_reshape/strided_slice/stack,model/efficientnetv2-b0/block4a_se_reshape/strided_slice/stack:0">
					<dim>1</dim>
				</port>
			</output>
		</layer>
		<layer id="96" name="model/efficientnetv2-b0/block4a_se_reshape/strided_slice/stack_1" type="Const" version="opset1">
			<data element_type="i32" shape="1" offset="409880" size="4" />
			<rt_info>
				<attribute name="precise" version="0" />
			</rt_info>
			<output>
				<port id="0" precision="I32" names="model/efficientnetv2-b0/block4a_se_reshape/strided_slice/stack_1,model/efficientnetv2-b0/block4a_se_reshape/strided_slice/stack_1:0">
					<dim>1</dim>
				</port>
			</output>
		</layer>
		<layer id="97" name="model/efficientnetv2-b0/block4a_se_reshape/strided_slice/stack_2" type="Const" version="opset1">
			<data element_type="i32" shape="1" offset="409880" size="4" />
			<rt_info>
				<attribute name="precise" version="0" />
			</rt_info>
			<output>
				<port id="0" precision="I32" names="model/efficientnetv2-b0/block4a_se_reshape/strided_slice/stack_2,model/efficientnetv2-b0/block4a_se_reshape/strided_slice/stack_2:0">
					<dim>1</dim>
				</port>
			</output>
		</layer>
		<layer id="98" name="model/efficientnetv2-b0/block4a_se_reshape/strided_slice" type="StridedSlice" version="opset1">
			<data begin_mask="0" end_mask="0" new_axis_mask="0" shrink_axis_mask="1" ellipsis_mask="0" />
			<input>
				<port id="0" precision="I32">
					<dim>2</dim>
				</port>
				<port id="1" precision="I32">
					<dim>1</dim>
				</port>
				<port id="2" precision="I32">
					<dim>1</dim>
				</port>
				<port id="3" precision="I32">
					<dim>1</dim>
				</port>
			</input>
			<output>
				<port id="4" precision="I32" names="model/efficientnetv2-b0/block4a_se_reshape/strided_slice,model/efficientnetv2-b0/block4a_se_reshape/strided_slice:0" />
			</output>
		</layer>
		<layer id="99" name="Constant_3835" type="Const" version="opset1">
			<data element_type="i64" shape="" offset="409884" size="8" />
			<rt_info>
				<attribute name="precise" version="0" />
			</rt_info>
			<output>
				<port id="0" precision="I64" />
			</output>
		</layer>
		<layer id="100" name="Unsqueeze_3836" type="Unsqueeze" version="opset1">
			<input>
				<port id="0" precision="I32" />
				<port id="1" precision="I64" />
			</input>
			<output>
				<port id="2" precision="I32">
					<dim>1</dim>
				</port>
			</output>
		</layer>
		<layer id="101" name="Unsqueeze_3837" type="Const" version="opset1">
			<data element_type="i32" shape="1" offset="409880" size="4" />
			<rt_info>
				<attribute name="precise" version="0" />
			</rt_info>
			<output>
				<port id="0" precision="I32">
					<dim>1</dim>
				</port>
			</output>
		</layer>
		<layer id="102" name="Unsqueeze_3838" type="Const" version="opset1">
			<data element_type="i32" shape="1" offset="409880" size="4" />
			<rt_info>
				<attribute name="precise" version="0" />
			</rt_info>
			<output>
				<port id="0" precision="I32">
					<dim>1</dim>
				</port>
			</output>
		</layer>
		<layer id="103" name="Unsqueeze_3839" type="Const" version="opset1">
			<data element_type="i32" shape="1" offset="409892" size="4" />
			<rt_info>
				<attribute name="precise" version="0" />
			</rt_info>
			<output>
				<port id="0" precision="I32">
					<dim>1</dim>
				</port>
			</output>
		</layer>
		<layer id="104" name="model/efficientnetv2-b0/block4a_se_reshape/Reshape/shape" type="Concat" version="opset1">
			<data axis="0" />
			<input>
				<port id="0" precision="I32">
					<dim>1</dim>
				</port>
				<port id="1" precision="I32">
					<dim>1</dim>
				</port>
				<port id="2" precision="I32">
					<dim>1</dim>
				</port>
				<port id="3" precision="I32">
					<dim>1</dim>
				</port>
			</input>
			<output>
				<port id="4" precision="I32" names="model/efficientnetv2-b0/block4a_se_reshape/Reshape/shape,model/efficientnetv2-b0/block4a_se_reshape/Reshape/shape:0">
					<dim>4</dim>
				</port>
			</output>
		</layer>
		<layer id="105" name="model/efficientnetv2-b0/block4a_se_reshape/Reshape" type="Reshape" version="opset1">
			<data special_zero="false" />
			<input>
				<port id="0" precision="FP32">
					<dim>1</dim>
					<dim>192</dim>
				</port>
				<port id="1" precision="I32">
					<dim>4</dim>
				</port>
			</input>
			<output>
				<port id="2" precision="FP32" names="model/efficientnetv2-b0/block4a_se_reshape/Reshape,model/efficientnetv2-b0/block4a_se_reshape/Reshape:0">
					<dim>1</dim>
					<dim>1</dim>
					<dim>1</dim>
					<dim>192</dim>
				</port>
			</output>
		</layer>
		<layer id="106" name="Constant_23425" type="Const" version="opset1">
			<data element_type="i64" shape="4" offset="409896" size="32" />
			<rt_info>
				<attribute name="precise" version="0" />
			</rt_info>
			<output>
				<port id="0" precision="I64">
					<dim>4</dim>
				</port>
			</output>
		</layer>
		<layer id="107" name="Transpose_3843" type="Reshape" version="opset1">
			<data special_zero="true" />
			<input>
				<port id="0" precision="FP32">
					<dim>1</dim>
					<dim>1</dim>
					<dim>1</dim>
					<dim>192</dim>
				</port>
				<port id="1" precision="I64">
					<dim>4</dim>
				</port>
			</input>
			<output>
				<port id="2" precision="FP32">
					<dim>1</dim>
					<dim>192</dim>
					<dim>1</dim>
					<dim>1</dim>
				</port>
			</output>
		</layer>
		<layer id="108" name="Transpose_3845_compressed" type="Const" version="opset1">
			<data element_type="f16" shape="12, 192, 1, 1" offset="409928" size="4608" />
			<output>
				<port id="0" precision="FP16">
					<dim>12</dim>
					<dim>192</dim>
					<dim>1</dim>
					<dim>1</dim>
				</port>
			</output>
		</layer>
		<layer id="109" name="Transpose_3845" type="Convert" version="opset1">
			<data destination_type="f32" />
			<rt_info>
				<attribute name="decompression" version="0" />
			</rt_info>
			<input>
				<port id="0" precision="FP16">
					<dim>12</dim>
					<dim>192</dim>
					<dim>1</dim>
					<dim>1</dim>
				</port>
			</input>
			<output>
				<port id="1" precision="FP32">
					<dim>12</dim>
					<dim>192</dim>
					<dim>1</dim>
					<dim>1</dim>
				</port>
			</output>
		</layer>
		<layer id="110" name="Convolution_3846" type="Convolution" version="opset1">
			<data strides="1, 1" dilations="1, 1" pads_begin="0, 0" pads_end="0, 0" auto_pad="same_upper" />
			<input>
				<port id="0" precision="FP32">
					<dim>1</dim>
					<dim>192</dim>
					<dim>1</dim>
					<dim>1</dim>
				</port>
				<port id="1" precision="FP32">
					<dim>12</dim>
					<dim>192</dim>
					<dim>1</dim>
					<dim>1</dim>
				</port>
			</input>
			<output>
				<port id="2" precision="FP32">
					<dim>1</dim>
					<dim>12</dim>
					<dim>1</dim>
					<dim>1</dim>
				</port>
			</output>
		</layer>
		<layer id="111" name="Transpose_7040_compressed" type="Const" version="opset1">
			<data element_type="f16" shape="1, 12, 1, 1" offset="414536" size="24" />
			<output>
				<port id="0" precision="FP16">
					<dim>1</dim>
					<dim>12</dim>
					<dim>1</dim>
					<dim>1</dim>
				</port>
			</output>
		</layer>
		<layer id="112" name="Transpose_7040" type="Convert" version="opset1">
			<data destination_type="f32" />
			<rt_info>
				<attribute name="decompression" version="0" />
			</rt_info>
			<input>
				<port id="0" precision="FP16">
					<dim>1</dim>
					<dim>12</dim>
					<dim>1</dim>
					<dim>1</dim>
				</port>
			</input>
			<output>
				<port id="1" precision="FP32">
					<dim>1</dim>
					<dim>12</dim>
					<dim>1</dim>
					<dim>1</dim>
				</port>
			</output>
		</layer>
		<layer id="113" name="Transpose_7042" type="Add" version="opset1">
			<data auto_broadcast="numpy" />
			<input>
				<port id="0" precision="FP32">
					<dim>1</dim>
					<dim>12</dim>
					<dim>1</dim>
					<dim>1</dim>
				</port>
				<port id="1" precision="FP32">
					<dim>1</dim>
					<dim>12</dim>
					<dim>1</dim>
					<dim>1</dim>
				</port>
			</input>
			<output>
				<port id="2" precision="FP32">
					<dim>1</dim>
					<dim>12</dim>
					<dim>1</dim>
					<dim>1</dim>
				</port>
			</output>
		</layer>
		<layer id="114" name="Transpose_7054" type="Swish" version="opset4">
			<input>
				<port id="0" precision="FP32">
					<dim>1</dim>
					<dim>12</dim>
					<dim>1</dim>
					<dim>1</dim>
				</port>
			</input>
			<output>
				<port id="1" precision="FP32">
					<dim>1</dim>
					<dim>12</dim>
					<dim>1</dim>
					<dim>1</dim>
				</port>
			</output>
		</layer>
		<layer id="115" name="Transpose_3857_compressed" type="Const" version="opset1">
			<data element_type="f16" shape="192, 12, 1, 1" offset="414560" size="4608" />
			<output>
				<port id="0" precision="FP16">
					<dim>192</dim>
					<dim>12</dim>
					<dim>1</dim>
					<dim>1</dim>
				</port>
			</output>
		</layer>
		<layer id="116" name="Transpose_3857" type="Convert" version="opset1">
			<data destination_type="f32" />
			<rt_info>
				<attribute name="decompression" version="0" />
			</rt_info>
			<input>
				<port id="0" precision="FP16">
					<dim>192</dim>
					<dim>12</dim>
					<dim>1</dim>
					<dim>1</dim>
				</port>
			</input>
			<output>
				<port id="1" precision="FP32">
					<dim>192</dim>
					<dim>12</dim>
					<dim>1</dim>
					<dim>1</dim>
				</port>
			</output>
		</layer>
		<layer id="117" name="Convolution_3858" type="Convolution" version="opset1">
			<data strides="1, 1" dilations="1, 1" pads_begin="0, 0" pads_end="0, 0" auto_pad="same_upper" />
			<input>
				<port id="0" precision="FP32">
					<dim>1</dim>
					<dim>12</dim>
					<dim>1</dim>
					<dim>1</dim>
				</port>
				<port id="1" precision="FP32">
					<dim>192</dim>
					<dim>12</dim>
					<dim>1</dim>
					<dim>1</dim>
				</port>
			</input>
			<output>
				<port id="2" precision="FP32">
					<dim>1</dim>
					<dim>192</dim>
					<dim>1</dim>
					<dim>1</dim>
				</port>
			</output>
		</layer>
		<layer id="118" name="Transpose_7058_compressed" type="Const" version="opset1">
			<data element_type="f16" shape="1, 192, 1, 1" offset="419168" size="384" />
			<output>
				<port id="0" precision="FP16">
					<dim>1</dim>
					<dim>192</dim>
					<dim>1</dim>
					<dim>1</dim>
				</port>
			</output>
		</layer>
		<layer id="119" name="Transpose_7058" type="Convert" version="opset1">
			<data destination_type="f32" />
			<rt_info>
				<attribute name="decompression" version="0" />
			</rt_info>
			<input>
				<port id="0" precision="FP16">
					<dim>1</dim>
					<dim>192</dim>
					<dim>1</dim>
					<dim>1</dim>
				</port>
			</input>
			<output>
				<port id="1" precision="FP32">
					<dim>1</dim>
					<dim>192</dim>
					<dim>1</dim>
					<dim>1</dim>
				</port>
			</output>
		</layer>
		<layer id="120" name="Transpose_7060" type="Add" version="opset1">
			<data auto_broadcast="numpy" />
			<input>
				<port id="0" precision="FP32">
					<dim>1</dim>
					<dim>192</dim>
					<dim>1</dim>
					<dim>1</dim>
				</port>
				<port id="1" precision="FP32">
					<dim>1</dim>
					<dim>192</dim>
					<dim>1</dim>
					<dim>1</dim>
				</port>
			</input>
			<output>
				<port id="2" precision="FP32">
					<dim>1</dim>
					<dim>192</dim>
					<dim>1</dim>
					<dim>1</dim>
				</port>
			</output>
		</layer>
		<layer id="121" name="Transpose_7062" type="Sigmoid" version="opset1">
			<input>
				<port id="0" precision="FP32">
					<dim>1</dim>
					<dim>192</dim>
					<dim>1</dim>
					<dim>1</dim>
				</port>
			</input>
			<output>
				<port id="1" precision="FP32">
					<dim>1</dim>
					<dim>192</dim>
					<dim>1</dim>
					<dim>1</dim>
				</port>
			</output>
		</layer>
		<layer id="122" name="Transpose_7066" type="Multiply" version="opset1">
			<data auto_broadcast="numpy" />
			<input>
				<port id="0" precision="FP32">
					<dim>1</dim>
					<dim>192</dim>
					<dim>14</dim>
					<dim>14</dim>
				</port>
				<port id="1" precision="FP32">
					<dim>1</dim>
					<dim>192</dim>
					<dim>1</dim>
					<dim>1</dim>
				</port>
			</input>
			<output>
				<port id="2" precision="FP32">
					<dim>1</dim>
					<dim>192</dim>
					<dim>14</dim>
					<dim>14</dim>
				</port>
			</output>
		</layer>
		<layer id="123" name="Multiply_26580_compressed" type="Const" version="opset1">
			<data element_type="f16" shape="96, 192, 1, 1" offset="419552" size="36864" />
			<output>
				<port id="0" precision="FP16">
					<dim>96</dim>
					<dim>192</dim>
					<dim>1</dim>
					<dim>1</dim>
				</port>
			</output>
		</layer>
		<layer id="124" name="Multiply_26580" type="Convert" version="opset1">
			<data destination_type="f32" />
			<rt_info>
				<attribute name="decompression" version="0" />
			</rt_info>
			<input>
				<port id="0" precision="FP16">
					<dim>96</dim>
					<dim>192</dim>
					<dim>1</dim>
					<dim>1</dim>
				</port>
			</input>
			<output>
				<port id="1" precision="FP32">
					<dim>96</dim>
					<dim>192</dim>
					<dim>1</dim>
					<dim>1</dim>
				</port>
			</output>
		</layer>
		<layer id="125" name="Multiply_24855" type="Convolution" version="opset1">
			<data strides="1, 1" dilations="1, 1" pads_begin="0, 0" pads_end="0, 0" auto_pad="same_upper" />
			<input>
				<port id="0" precision="FP32">
					<dim>1</dim>
					<dim>192</dim>
					<dim>14</dim>
					<dim>14</dim>
				</port>
				<port id="1" precision="FP32">
					<dim>96</dim>
					<dim>192</dim>
					<dim>1</dim>
					<dim>1</dim>
				</port>
			</input>
			<output>
				<port id="2" precision="FP32">
					<dim>1</dim>
					<dim>96</dim>
					<dim>14</dim>
					<dim>14</dim>
				</port>
			</output>
		</layer>
		<layer id="126" name="Constant_24863_compressed" type="Const" version="opset1">
			<data element_type="f16" shape="1, 96, 1, 1" offset="456416" size="192" />
			<output>
				<port id="0" precision="FP16">
					<dim>1</dim>
					<dim>96</dim>
					<dim>1</dim>
					<dim>1</dim>
				</port>
			</output>
		</layer>
		<layer id="127" name="Constant_24863" type="Convert" version="opset1">
			<data destination_type="f32" />
			<rt_info>
				<attribute name="decompression" version="0" />
			</rt_info>
			<input>
				<port id="0" precision="FP16">
					<dim>1</dim>
					<dim>96</dim>
					<dim>1</dim>
					<dim>1</dim>
				</port>
			</input>
			<output>
				<port id="1" precision="FP32">
					<dim>1</dim>
					<dim>96</dim>
					<dim>1</dim>
					<dim>1</dim>
				</port>
			</output>
		</layer>
		<layer id="128" name="Transpose_7118" type="Add" version="opset1">
			<data auto_broadcast="numpy" />
			<input>
				<port id="0" precision="FP32">
					<dim>1</dim>
					<dim>96</dim>
					<dim>14</dim>
					<dim>14</dim>
				</port>
				<port id="1" precision="FP32">
					<dim>1</dim>
					<dim>96</dim>
					<dim>1</dim>
					<dim>1</dim>
				</port>
			</input>
			<output>
				<port id="2" precision="FP32">
					<dim>1</dim>
					<dim>96</dim>
					<dim>14</dim>
					<dim>14</dim>
				</port>
			</output>
		</layer>
		<layer id="129" name="Multiply_26584_compressed" type="Const" version="opset1">
			<data element_type="f16" shape="384, 96, 1, 1" offset="456608" size="73728" />
			<output>
				<port id="0" precision="FP16">
					<dim>384</dim>
					<dim>96</dim>
					<dim>1</dim>
					<dim>1</dim>
				</port>
			</output>
		</layer>
		<layer id="130" name="Multiply_26584" type="Convert" version="opset1">
			<data destination_type="f32" />
			<rt_info>
				<attribute name="decompression" version="0" />
			</rt_info>
			<input>
				<port id="0" precision="FP16">
					<dim>384</dim>
					<dim>96</dim>
					<dim>1</dim>
					<dim>1</dim>
				</port>
			</input>
			<output>
				<port id="1" precision="FP32">
					<dim>384</dim>
					<dim>96</dim>
					<dim>1</dim>
					<dim>1</dim>
				</port>
			</output>
		</layer>
		<layer id="131" name="Multiply_24869" type="Convolution" version="opset1">
			<data strides="1, 1" dilations="1, 1" pads_begin="0, 0" pads_end="0, 0" auto_pad="same_upper" />
			<input>
				<port id="0" precision="FP32">
					<dim>1</dim>
					<dim>96</dim>
					<dim>14</dim>
					<dim>14</dim>
				</port>
				<port id="1" precision="FP32">
					<dim>384</dim>
					<dim>96</dim>
					<dim>1</dim>
					<dim>1</dim>
				</port>
			</input>
			<output>
				<port id="2" precision="FP32">
					<dim>1</dim>
					<dim>384</dim>
					<dim>14</dim>
					<dim>14</dim>
				</port>
			</output>
		</layer>
		<layer id="132" name="Constant_24877_compressed" type="Const" version="opset1">
			<data element_type="f16" shape="1, 384, 1, 1" offset="530336" size="768" />
			<output>
				<port id="0" precision="FP16">
					<dim>1</dim>
					<dim>384</dim>
					<dim>1</dim>
					<dim>1</dim>
				</port>
			</output>
		</layer>
		<layer id="133" name="Constant_24877" type="Convert" version="opset1">
			<data destination_type="f32" />
			<rt_info>
				<attribute name="decompression" version="0" />
			</rt_info>
			<input>
				<port id="0" precision="FP16">
					<dim>1</dim>
					<dim>384</dim>
					<dim>1</dim>
					<dim>1</dim>
				</port>
			</input>
			<output>
				<port id="1" precision="FP32">
					<dim>1</dim>
					<dim>384</dim>
					<dim>1</dim>
					<dim>1</dim>
				</port>
			</output>
		</layer>
		<layer id="134" name="Transpose_7170" type="Add" version="opset1">
			<data auto_broadcast="numpy" />
			<input>
				<port id="0" precision="FP32">
					<dim>1</dim>
					<dim>384</dim>
					<dim>14</dim>
					<dim>14</dim>
				</port>
				<port id="1" precision="FP32">
					<dim>1</dim>
					<dim>384</dim>
					<dim>1</dim>
					<dim>1</dim>
				</port>
			</input>
			<output>
				<port id="2" precision="FP32">
					<dim>1</dim>
					<dim>384</dim>
					<dim>14</dim>
					<dim>14</dim>
				</port>
			</output>
		</layer>
		<layer id="135" name="Transpose_7182" type="Swish" version="opset4">
			<input>
				<port id="0" precision="FP32">
					<dim>1</dim>
					<dim>384</dim>
					<dim>14</dim>
					<dim>14</dim>
				</port>
			</input>
			<output>
				<port id="1" precision="FP32">
					<dim>1</dim>
					<dim>384</dim>
					<dim>14</dim>
					<dim>14</dim>
				</port>
			</output>
		</layer>
		<layer id="136" name="Multiply_26588_compressed" type="Const" version="opset1">
			<data element_type="f16" shape="384, 1, 1, 3, 3" offset="531104" size="6912" />
			<output>
				<port id="0" precision="FP16">
					<dim>384</dim>
					<dim>1</dim>
					<dim>1</dim>
					<dim>3</dim>
					<dim>3</dim>
				</port>
			</output>
		</layer>
		<layer id="137" name="Multiply_26588" type="Convert" version="opset1">
			<data destination_type="f32" />
			<rt_info>
				<attribute name="decompression" version="0" />
			</rt_info>
			<input>
				<port id="0" precision="FP16">
					<dim>384</dim>
					<dim>1</dim>
					<dim>1</dim>
					<dim>3</dim>
					<dim>3</dim>
				</port>
			</input>
			<output>
				<port id="1" precision="FP32">
					<dim>384</dim>
					<dim>1</dim>
					<dim>1</dim>
					<dim>3</dim>
					<dim>3</dim>
				</port>
			</output>
		</layer>
		<layer id="138" name="Multiply_24883" type="GroupConvolution" version="opset1">
			<data strides="1, 1" pads_begin="0, 0" pads_end="0, 0" dilations="1, 1" auto_pad="same_upper" />
			<input>
				<port id="0" precision="FP32">
					<dim>1</dim>
					<dim>384</dim>
					<dim>14</dim>
					<dim>14</dim>
				</port>
				<port id="1" precision="FP32">
					<dim>384</dim>
					<dim>1</dim>
					<dim>1</dim>
					<dim>3</dim>
					<dim>3</dim>
				</port>
			</input>
			<output>
				<port id="2" precision="FP32">
					<dim>1</dim>
					<dim>384</dim>
					<dim>14</dim>
					<dim>14</dim>
				</port>
			</output>
		</layer>
		<layer id="139" name="Constant_24891_compressed" type="Const" version="opset1">
			<data element_type="f16" shape="1, 384, 1, 1" offset="538016" size="768" />
			<output>
				<port id="0" precision="FP16">
					<dim>1</dim>
					<dim>384</dim>
					<dim>1</dim>
					<dim>1</dim>
				</port>
			</output>
		</layer>
		<layer id="140" name="Constant_24891" type="Convert" version="opset1">
			<data destination_type="f32" />
			<rt_info>
				<attribute name="decompression" version="0" />
			</rt_info>
			<input>
				<port id="0" precision="FP16">
					<dim>1</dim>
					<dim>384</dim>
					<dim>1</dim>
					<dim>1</dim>
				</port>
			</input>
			<output>
				<port id="1" precision="FP32">
					<dim>1</dim>
					<dim>384</dim>
					<dim>1</dim>
					<dim>1</dim>
				</port>
			</output>
		</layer>
		<layer id="141" name="Transpose_7234" type="Add" version="opset1">
			<data auto_broadcast="numpy" />
			<input>
				<port id="0" precision="FP32">
					<dim>1</dim>
					<dim>384</dim>
					<dim>14</dim>
					<dim>14</dim>
				</port>
				<port id="1" precision="FP32">
					<dim>1</dim>
					<dim>384</dim>
					<dim>1</dim>
					<dim>1</dim>
				</port>
			</input>
			<output>
				<port id="2" precision="FP32">
					<dim>1</dim>
					<dim>384</dim>
					<dim>14</dim>
					<dim>14</dim>
				</port>
			</output>
		</layer>
		<layer id="142" name="Transpose_7246" type="Swish" version="opset4">
			<input>
				<port id="0" precision="FP32">
					<dim>1</dim>
					<dim>384</dim>
					<dim>14</dim>
					<dim>14</dim>
				</port>
			</input>
			<output>
				<port id="1" precision="FP32">
					<dim>1</dim>
					<dim>384</dim>
					<dim>14</dim>
					<dim>14</dim>
				</port>
			</output>
		</layer>
		<layer id="143" name="Constant_7248" type="Const" version="opset1">
			<data element_type="i32" shape="2" offset="409868" size="8" />
			<output>
				<port id="0" precision="I32">
					<dim>2</dim>
				</port>
			</output>
		</layer>
		<layer id="144" name="Transpose_7250" type="ReduceMean" version="opset1">
			<data keep_dims="false" />
			<input>
				<port id="0" precision="FP32">
					<dim>1</dim>
					<dim>384</dim>
					<dim>14</dim>
					<dim>14</dim>
				</port>
				<port id="1" precision="I32">
					<dim>2</dim>
				</port>
			</input>
			<output>
				<port id="2" precision="FP32" names="model/efficientnetv2-b0/block4b_se_squeeze/Mean,model/efficientnetv2-b0/block4b_se_squeeze/Mean:0">
					<dim>1</dim>
					<dim>384</dim>
				</port>
			</output>
		</layer>
		<layer id="145" name="Gather_7252" type="ShapeOf" version="opset3">
			<data output_type="i32" />
			<input>
				<port id="0" precision="FP32">
					<dim>1</dim>
					<dim>384</dim>
				</port>
			</input>
			<output>
				<port id="1" precision="I32" names="model/efficientnetv2-b0/block4b_se_reshape/Shape,model/efficientnetv2-b0/block4b_se_reshape/Shape:0">
					<dim>2</dim>
				</port>
			</output>
		</layer>
		<layer id="146" name="model/efficientnetv2-b0/block4b_se_reshape/strided_slice/stack" type="Const" version="opset1">
			<data element_type="i32" shape="1" offset="409876" size="4" />
			<rt_info>
				<attribute name="precise" version="0" />
			</rt_info>
			<output>
				<port id="0" precision="I32" names="model/efficientnetv2-b0/block4b_se_reshape/strided_slice/stack,model/efficientnetv2-b0/block4b_se_reshape/strided_slice/stack:0">
					<dim>1</dim>
				</port>
			</output>
		</layer>
		<layer id="147" name="model/efficientnetv2-b0/block4b_se_reshape/strided_slice/stack_1" type="Const" version="opset1">
			<data element_type="i32" shape="1" offset="409880" size="4" />
			<rt_info>
				<attribute name="precise" version="0" />
			</rt_info>
			<output>
				<port id="0" precision="I32" names="model/efficientnetv2-b0/block4b_se_reshape/strided_slice/stack_1,model/efficientnetv2-b0/block4b_se_reshape/strided_slice/stack_1:0">
					<dim>1</dim>
				</port>
			</output>
		</layer>
		<layer id="148" name="model/efficientnetv2-b0/block4b_se_reshape/strided_slice/stack_2" type="Const" version="opset1">
			<data element_type="i32" shape="1" offset="409880" size="4" />
			<rt_info>
				<attribute name="precise" version="0" />
			</rt_info>
			<output>
				<port id="0" precision="I32" names="model/efficientnetv2-b0/block4b_se_reshape/strided_slice/stack_2,model/efficientnetv2-b0/block4b_se_reshape/strided_slice/stack_2:0">
					<dim>1</dim>
				</port>
			</output>
		</layer>
		<layer id="149" name="model/efficientnetv2-b0/block4b_se_reshape/strided_slice" type="StridedSlice" version="opset1">
			<data begin_mask="0" end_mask="0" new_axis_mask="0" shrink_axis_mask="1" ellipsis_mask="0" />
			<input>
				<port id="0" precision="I32">
					<dim>2</dim>
				</port>
				<port id="1" precision="I32">
					<dim>1</dim>
				</port>
				<port id="2" precision="I32">
					<dim>1</dim>
				</port>
				<port id="3" precision="I32">
					<dim>1</dim>
				</port>
			</input>
			<output>
				<port id="4" precision="I32" names="model/efficientnetv2-b0/block4b_se_reshape/strided_slice,model/efficientnetv2-b0/block4b_se_reshape/strided_slice:0" />
			</output>
		</layer>
		<layer id="150" name="Constant_3981" type="Const" version="opset1">
			<data element_type="i64" shape="" offset="409884" size="8" />
			<rt_info>
				<attribute name="precise" version="0" />
			</rt_info>
			<output>
				<port id="0" precision="I64" />
			</output>
		</layer>
		<layer id="151" name="Unsqueeze_3982" type="Unsqueeze" version="opset1">
			<input>
				<port id="0" precision="I32" />
				<port id="1" precision="I64" />
			</input>
			<output>
				<port id="2" precision="I32">
					<dim>1</dim>
				</port>
			</output>
		</layer>
		<layer id="152" name="Unsqueeze_3983" type="Const" version="opset1">
			<data element_type="i32" shape="1" offset="409880" size="4" />
			<rt_info>
				<attribute name="precise" version="0" />
			</rt_info>
			<output>
				<port id="0" precision="I32">
					<dim>1</dim>
				</port>
			</output>
		</layer>
		<layer id="153" name="Unsqueeze_3984" type="Const" version="opset1">
			<data element_type="i32" shape="1" offset="409880" size="4" />
			<rt_info>
				<attribute name="precise" version="0" />
			</rt_info>
			<output>
				<port id="0" precision="I32">
					<dim>1</dim>
				</port>
			</output>
		</layer>
		<layer id="154" name="Unsqueeze_3985" type="Const" version="opset1">
			<data element_type="i32" shape="1" offset="538784" size="4" />
			<rt_info>
				<attribute name="precise" version="0" />
			</rt_info>
			<output>
				<port id="0" precision="I32">
					<dim>1</dim>
				</port>
			</output>
		</layer>
		<layer id="155" name="model/efficientnetv2-b0/block4b_se_reshape/Reshape/shape" type="Concat" version="opset1">
			<data axis="0" />
			<input>
				<port id="0" precision="I32">
					<dim>1</dim>
				</port>
				<port id="1" precision="I32">
					<dim>1</dim>
				</port>
				<port id="2" precision="I32">
					<dim>1</dim>
				</port>
				<port id="3" precision="I32">
					<dim>1</dim>
				</port>
			</input>
			<output>
				<port id="4" precision="I32" names="model/efficientnetv2-b0/block4b_se_reshape/Reshape/shape,model/efficientnetv2-b0/block4b_se_reshape/Reshape/shape:0">
					<dim>4</dim>
				</port>
			</output>
		</layer>
		<layer id="156" name="model/efficientnetv2-b0/block4b_se_reshape/Reshape" type="Reshape" version="opset1">
			<data special_zero="false" />
			<input>
				<port id="0" precision="FP32">
					<dim>1</dim>
					<dim>384</dim>
				</port>
				<port id="1" precision="I32">
					<dim>4</dim>
				</port>
			</input>
			<output>
				<port id="2" precision="FP32" names="model/efficientnetv2-b0/block4b_se_reshape/Reshape,model/efficientnetv2-b0/block4b_se_reshape/Reshape:0">
					<dim>1</dim>
					<dim>1</dim>
					<dim>1</dim>
					<dim>384</dim>
				</port>
			</output>
		</layer>
		<layer id="157" name="Constant_23430" type="Const" version="opset1">
			<data element_type="i64" shape="4" offset="538788" size="32" />
			<rt_info>
				<attribute name="precise" version="0" />
			</rt_info>
			<output>
				<port id="0" precision="I64">
					<dim>4</dim>
				</port>
			</output>
		</layer>
		<layer id="158" name="Transpose_3989" type="Reshape" version="opset1">
			<data special_zero="true" />
			<input>
				<port id="0" precision="FP32">
					<dim>1</dim>
					<dim>1</dim>
					<dim>1</dim>
					<dim>384</dim>
				</port>
				<port id="1" precision="I64">
					<dim>4</dim>
				</port>
			</input>
			<output>
				<port id="2" precision="FP32">
					<dim>1</dim>
					<dim>384</dim>
					<dim>1</dim>
					<dim>1</dim>
				</port>
			</output>
		</layer>
		<layer id="159" name="Transpose_3991_compressed" type="Const" version="opset1">
			<data element_type="f16" shape="24, 384, 1, 1" offset="538820" size="18432" />
			<output>
				<port id="0" precision="FP16">
					<dim>24</dim>
					<dim>384</dim>
					<dim>1</dim>
					<dim>1</dim>
				</port>
			</output>
		</layer>
		<layer id="160" name="Transpose_3991" type="Convert" version="opset1">
			<data destination_type="f32" />
			<rt_info>
				<attribute name="decompression" version="0" />
			</rt_info>
			<input>
				<port id="0" precision="FP16">
					<dim>24</dim>
					<dim>384</dim>
					<dim>1</dim>
					<dim>1</dim>
				</port>
			</input>
			<output>
				<port id="1" precision="FP32">
					<dim>24</dim>
					<dim>384</dim>
					<dim>1</dim>
					<dim>1</dim>
				</port>
			</output>
		</layer>
		<layer id="161" name="Convolution_3992" type="Convolution" version="opset1">
			<data strides="1, 1" dilations="1, 1" pads_begin="0, 0" pads_end="0, 0" auto_pad="same_upper" />
			<input>
				<port id="0" precision="FP32">
					<dim>1</dim>
					<dim>384</dim>
					<dim>1</dim>
					<dim>1</dim>
				</port>
				<port id="1" precision="FP32">
					<dim>24</dim>
					<dim>384</dim>
					<dim>1</dim>
					<dim>1</dim>
				</port>
			</input>
			<output>
				<port id="2" precision="FP32">
					<dim>1</dim>
					<dim>24</dim>
					<dim>1</dim>
					<dim>1</dim>
				</port>
			</output>
		</layer>
		<layer id="162" name="Transpose_7256_compressed" type="Const" version="opset1">
			<data element_type="f16" shape="1, 24, 1, 1" offset="557252" size="48" />
			<output>
				<port id="0" precision="FP16">
					<dim>1</dim>
					<dim>24</dim>
					<dim>1</dim>
					<dim>1</dim>
				</port>
			</output>
		</layer>
		<layer id="163" name="Transpose_7256" type="Convert" version="opset1">
			<data destination_type="f32" />
			<rt_info>
				<attribute name="decompression" version="0" />
			</rt_info>
			<input>
				<port id="0" precision="FP16">
					<dim>1</dim>
					<dim>24</dim>
					<dim>1</dim>
					<dim>1</dim>
				</port>
			</input>
			<output>
				<port id="1" precision="FP32">
					<dim>1</dim>
					<dim>24</dim>
					<dim>1</dim>
					<dim>1</dim>
				</port>
			</output>
		</layer>
		<layer id="164" name="Transpose_7258" type="Add" version="opset1">
			<data auto_broadcast="numpy" />
			<input>
				<port id="0" precision="FP32">
					<dim>1</dim>
					<dim>24</dim>
					<dim>1</dim>
					<dim>1</dim>
				</port>
				<port id="1" precision="FP32">
					<dim>1</dim>
					<dim>24</dim>
					<dim>1</dim>
					<dim>1</dim>
				</port>
			</input>
			<output>
				<port id="2" precision="FP32">
					<dim>1</dim>
					<dim>24</dim>
					<dim>1</dim>
					<dim>1</dim>
				</port>
			</output>
		</layer>
		<layer id="165" name="Transpose_7270" type="Swish" version="opset4">
			<input>
				<port id="0" precision="FP32">
					<dim>1</dim>
					<dim>24</dim>
					<dim>1</dim>
					<dim>1</dim>
				</port>
			</input>
			<output>
				<port id="1" precision="FP32">
					<dim>1</dim>
					<dim>24</dim>
					<dim>1</dim>
					<dim>1</dim>
				</port>
			</output>
		</layer>
		<layer id="166" name="Transpose_4003_compressed" type="Const" version="opset1">
			<data element_type="f16" shape="384, 24, 1, 1" offset="557300" size="18432" />
			<output>
				<port id="0" precision="FP16">
					<dim>384</dim>
					<dim>24</dim>
					<dim>1</dim>
					<dim>1</dim>
				</port>
			</output>
		</layer>
		<layer id="167" name="Transpose_4003" type="Convert" version="opset1">
			<data destination_type="f32" />
			<rt_info>
				<attribute name="decompression" version="0" />
			</rt_info>
			<input>
				<port id="0" precision="FP16">
					<dim>384</dim>
					<dim>24</dim>
					<dim>1</dim>
					<dim>1</dim>
				</port>
			</input>
			<output>
				<port id="1" precision="FP32">
					<dim>384</dim>
					<dim>24</dim>
					<dim>1</dim>
					<dim>1</dim>
				</port>
			</output>
		</layer>
		<layer id="168" name="Convolution_4004" type="Convolution" version="opset1">
			<data strides="1, 1" dilations="1, 1" pads_begin="0, 0" pads_end="0, 0" auto_pad="same_upper" />
			<input>
				<port id="0" precision="FP32">
					<dim>1</dim>
					<dim>24</dim>
					<dim>1</dim>
					<dim>1</dim>
				</port>
				<port id="1" precision="FP32">
					<dim>384</dim>
					<dim>24</dim>
					<dim>1</dim>
					<dim>1</dim>
				</port>
			</input>
			<output>
				<port id="2" precision="FP32">
					<dim>1</dim>
					<dim>384</dim>
					<dim>1</dim>
					<dim>1</dim>
				</port>
			</output>
		</layer>
		<layer id="169" name="Transpose_7274_compressed" type="Const" version="opset1">
			<data element_type="f16" shape="1, 384, 1, 1" offset="575732" size="768" />
			<output>
				<port id="0" precision="FP16">
					<dim>1</dim>
					<dim>384</dim>
					<dim>1</dim>
					<dim>1</dim>
				</port>
			</output>
		</layer>
		<layer id="170" name="Transpose_7274" type="Convert" version="opset1">
			<data destination_type="f32" />
			<rt_info>
				<attribute name="decompression" version="0" />
			</rt_info>
			<input>
				<port id="0" precision="FP16">
					<dim>1</dim>
					<dim>384</dim>
					<dim>1</dim>
					<dim>1</dim>
				</port>
			</input>
			<output>
				<port id="1" precision="FP32">
					<dim>1</dim>
					<dim>384</dim>
					<dim>1</dim>
					<dim>1</dim>
				</port>
			</output>
		</layer>
		<layer id="171" name="Transpose_7276" type="Add" version="opset1">
			<data auto_broadcast="numpy" />
			<input>
				<port id="0" precision="FP32">
					<dim>1</dim>
					<dim>384</dim>
					<dim>1</dim>
					<dim>1</dim>
				</port>
				<port id="1" precision="FP32">
					<dim>1</dim>
					<dim>384</dim>
					<dim>1</dim>
					<dim>1</dim>
				</port>
			</input>
			<output>
				<port id="2" precision="FP32">
					<dim>1</dim>
					<dim>384</dim>
					<dim>1</dim>
					<dim>1</dim>
				</port>
			</output>
		</layer>
		<layer id="172" name="Transpose_7278" type="Sigmoid" version="opset1">
			<input>
				<port id="0" precision="FP32">
					<dim>1</dim>
					<dim>384</dim>
					<dim>1</dim>
					<dim>1</dim>
				</port>
			</input>
			<output>
				<port id="1" precision="FP32">
					<dim>1</dim>
					<dim>384</dim>
					<dim>1</dim>
					<dim>1</dim>
				</port>
			</output>
		</layer>
		<layer id="173" name="Transpose_7282" type="Multiply" version="opset1">
			<data auto_broadcast="numpy" />
			<input>
				<port id="0" precision="FP32">
					<dim>1</dim>
					<dim>384</dim>
					<dim>14</dim>
					<dim>14</dim>
				</port>
				<port id="1" precision="FP32">
					<dim>1</dim>
					<dim>384</dim>
					<dim>1</dim>
					<dim>1</dim>
				</port>
			</input>
			<output>
				<port id="2" precision="FP32">
					<dim>1</dim>
					<dim>384</dim>
					<dim>14</dim>
					<dim>14</dim>
				</port>
			</output>
		</layer>
		<layer id="174" name="Multiply_26591_compressed" type="Const" version="opset1">
			<data element_type="f16" shape="96, 384, 1, 1" offset="576500" size="73728" />
			<output>
				<port id="0" precision="FP16">
					<dim>96</dim>
					<dim>384</dim>
					<dim>1</dim>
					<dim>1</dim>
				</port>
			</output>
		</layer>
		<layer id="175" name="Multiply_26591" type="Convert" version="opset1">
			<data destination_type="f32" />
			<rt_info>
				<attribute name="decompression" version="0" />
			</rt_info>
			<input>
				<port id="0" precision="FP16">
					<dim>96</dim>
					<dim>384</dim>
					<dim>1</dim>
					<dim>1</dim>
				</port>
			</input>
			<output>
				<port id="1" precision="FP32">
					<dim>96</dim>
					<dim>384</dim>
					<dim>1</dim>
					<dim>1</dim>
				</port>
			</output>
		</layer>
		<layer id="176" name="Multiply_24897" type="Convolution" version="opset1">
			<data strides="1, 1" dilations="1, 1" pads_begin="0, 0" pads_end="0, 0" auto_pad="same_upper" />
			<input>
				<port id="0" precision="FP32">
					<dim>1</dim>
					<dim>384</dim>
					<dim>14</dim>
					<dim>14</dim>
				</port>
				<port id="1" precision="FP32">
					<dim>96</dim>
					<dim>384</dim>
					<dim>1</dim>
					<dim>1</dim>
				</port>
			</input>
			<output>
				<port id="2" precision="FP32">
					<dim>1</dim>
					<dim>96</dim>
					<dim>14</dim>
					<dim>14</dim>
				</port>
			</output>
		</layer>
		<layer id="177" name="Constant_24905_compressed" type="Const" version="opset1">
			<data element_type="f16" shape="1, 96, 1, 1" offset="650228" size="192" />
			<output>
				<port id="0" precision="FP16">
					<dim>1</dim>
					<dim>96</dim>
					<dim>1</dim>
					<dim>1</dim>
				</port>
			</output>
		</layer>
		<layer id="178" name="Constant_24905" type="Convert" version="opset1">
			<data destination_type="f32" />
			<rt_info>
				<attribute name="decompression" version="0" />
			</rt_info>
			<input>
				<port id="0" precision="FP16">
					<dim>1</dim>
					<dim>96</dim>
					<dim>1</dim>
					<dim>1</dim>
				</port>
			</input>
			<output>
				<port id="1" precision="FP32">
					<dim>1</dim>
					<dim>96</dim>
					<dim>1</dim>
					<dim>1</dim>
				</port>
			</output>
		</layer>
		<layer id="179" name="Transpose_7334" type="Add" version="opset1">
			<data auto_broadcast="numpy" />
			<input>
				<port id="0" precision="FP32">
					<dim>1</dim>
					<dim>96</dim>
					<dim>14</dim>
					<dim>14</dim>
				</port>
				<port id="1" precision="FP32">
					<dim>1</dim>
					<dim>96</dim>
					<dim>1</dim>
					<dim>1</dim>
				</port>
			</input>
			<output>
				<port id="2" precision="FP32">
					<dim>1</dim>
					<dim>96</dim>
					<dim>14</dim>
					<dim>14</dim>
				</port>
			</output>
		</layer>
		<layer id="180" name="Transpose_7338" type="Add" version="opset1">
			<data auto_broadcast="numpy" />
			<input>
				<port id="0" precision="FP32">
					<dim>1</dim>
					<dim>96</dim>
					<dim>14</dim>
					<dim>14</dim>
				</port>
				<port id="1" precision="FP32">
					<dim>1</dim>
					<dim>96</dim>
					<dim>14</dim>
					<dim>14</dim>
				</port>
			</input>
			<output>
				<port id="2" precision="FP32">
					<dim>1</dim>
					<dim>96</dim>
					<dim>14</dim>
					<dim>14</dim>
				</port>
			</output>
		</layer>
		<layer id="181" name="Multiply_26595_compressed" type="Const" version="opset1">
			<data element_type="f16" shape="384, 96, 1, 1" offset="650420" size="73728" />
			<output>
				<port id="0" precision="FP16">
					<dim>384</dim>
					<dim>96</dim>
					<dim>1</dim>
					<dim>1</dim>
				</port>
			</output>
		</layer>
		<layer id="182" name="Multiply_26595" type="Convert" version="opset1">
			<data destination_type="f32" />
			<rt_info>
				<attribute name="decompression" version="0" />
			</rt_info>
			<input>
				<port id="0" precision="FP16">
					<dim>384</dim>
					<dim>96</dim>
					<dim>1</dim>
					<dim>1</dim>
				</port>
			</input>
			<output>
				<port id="1" precision="FP32">
					<dim>384</dim>
					<dim>96</dim>
					<dim>1</dim>
					<dim>1</dim>
				</port>
			</output>
		</layer>
		<layer id="183" name="Multiply_24911" type="Convolution" version="opset1">
			<data strides="1, 1" dilations="1, 1" pads_begin="0, 0" pads_end="0, 0" auto_pad="same_upper" />
			<input>
				<port id="0" precision="FP32">
					<dim>1</dim>
					<dim>96</dim>
					<dim>14</dim>
					<dim>14</dim>
				</port>
				<port id="1" precision="FP32">
					<dim>384</dim>
					<dim>96</dim>
					<dim>1</dim>
					<dim>1</dim>
				</port>
			</input>
			<output>
				<port id="2" precision="FP32">
					<dim>1</dim>
					<dim>384</dim>
					<dim>14</dim>
					<dim>14</dim>
				</port>
			</output>
		</layer>
		<layer id="184" name="Constant_24919_compressed" type="Const" version="opset1">
			<data element_type="f16" shape="1, 384, 1, 1" offset="724148" size="768" />
			<output>
				<port id="0" precision="FP16">
					<dim>1</dim>
					<dim>384</dim>
					<dim>1</dim>
					<dim>1</dim>
				</port>
			</output>
		</layer>
		<layer id="185" name="Constant_24919" type="Convert" version="opset1">
			<data destination_type="f32" />
			<rt_info>
				<attribute name="decompression" version="0" />
			</rt_info>
			<input>
				<port id="0" precision="FP16">
					<dim>1</dim>
					<dim>384</dim>
					<dim>1</dim>
					<dim>1</dim>
				</port>
			</input>
			<output>
				<port id="1" precision="FP32">
					<dim>1</dim>
					<dim>384</dim>
					<dim>1</dim>
					<dim>1</dim>
				</port>
			</output>
		</layer>
		<layer id="186" name="Transpose_7390" type="Add" version="opset1">
			<data auto_broadcast="numpy" />
			<input>
				<port id="0" precision="FP32">
					<dim>1</dim>
					<dim>384</dim>
					<dim>14</dim>
					<dim>14</dim>
				</port>
				<port id="1" precision="FP32">
					<dim>1</dim>
					<dim>384</dim>
					<dim>1</dim>
					<dim>1</dim>
				</port>
			</input>
			<output>
				<port id="2" precision="FP32">
					<dim>1</dim>
					<dim>384</dim>
					<dim>14</dim>
					<dim>14</dim>
				</port>
			</output>
		</layer>
		<layer id="187" name="Transpose_7402" type="Swish" version="opset4">
			<input>
				<port id="0" precision="FP32">
					<dim>1</dim>
					<dim>384</dim>
					<dim>14</dim>
					<dim>14</dim>
				</port>
			</input>
			<output>
				<port id="1" precision="FP32">
					<dim>1</dim>
					<dim>384</dim>
					<dim>14</dim>
					<dim>14</dim>
				</port>
			</output>
		</layer>
		<layer id="188" name="Multiply_26599_compressed" type="Const" version="opset1">
			<data element_type="f16" shape="384, 1, 1, 3, 3" offset="724916" size="6912" />
			<output>
				<port id="0" precision="FP16">
					<dim>384</dim>
					<dim>1</dim>
					<dim>1</dim>
					<dim>3</dim>
					<dim>3</dim>
				</port>
			</output>
		</layer>
		<layer id="189" name="Multiply_26599" type="Convert" version="opset1">
			<data destination_type="f32" />
			<rt_info>
				<attribute name="decompression" version="0" />
			</rt_info>
			<input>
				<port id="0" precision="FP16">
					<dim>384</dim>
					<dim>1</dim>
					<dim>1</dim>
					<dim>3</dim>
					<dim>3</dim>
				</port>
			</input>
			<output>
				<port id="1" precision="FP32">
					<dim>384</dim>
					<dim>1</dim>
					<dim>1</dim>
					<dim>3</dim>
					<dim>3</dim>
				</port>
			</output>
		</layer>
		<layer id="190" name="Multiply_24925" type="GroupConvolution" version="opset1">
			<data strides="1, 1" pads_begin="0, 0" pads_end="0, 0" dilations="1, 1" auto_pad="same_upper" />
			<input>
				<port id="0" precision="FP32">
					<dim>1</dim>
					<dim>384</dim>
					<dim>14</dim>
					<dim>14</dim>
				</port>
				<port id="1" precision="FP32">
					<dim>384</dim>
					<dim>1</dim>
					<dim>1</dim>
					<dim>3</dim>
					<dim>3</dim>
				</port>
			</input>
			<output>
				<port id="2" precision="FP32">
					<dim>1</dim>
					<dim>384</dim>
					<dim>14</dim>
					<dim>14</dim>
				</port>
			</output>
		</layer>
		<layer id="191" name="Constant_24933_compressed" type="Const" version="opset1">
			<data element_type="f16" shape="1, 384, 1, 1" offset="731828" size="768" />
			<output>
				<port id="0" precision="FP16">
					<dim>1</dim>
					<dim>384</dim>
					<dim>1</dim>
					<dim>1</dim>
				</port>
			</output>
		</layer>
		<layer id="192" name="Constant_24933" type="Convert" version="opset1">
			<data destination_type="f32" />
			<rt_info>
				<attribute name="decompression" version="0" />
			</rt_info>
			<input>
				<port id="0" precision="FP16">
					<dim>1</dim>
					<dim>384</dim>
					<dim>1</dim>
					<dim>1</dim>
				</port>
			</input>
			<output>
				<port id="1" precision="FP32">
					<dim>1</dim>
					<dim>384</dim>
					<dim>1</dim>
					<dim>1</dim>
				</port>
			</output>
		</layer>
		<layer id="193" name="Transpose_7454" type="Add" version="opset1">
			<data auto_broadcast="numpy" />
			<input>
				<port id="0" precision="FP32">
					<dim>1</dim>
					<dim>384</dim>
					<dim>14</dim>
					<dim>14</dim>
				</port>
				<port id="1" precision="FP32">
					<dim>1</dim>
					<dim>384</dim>
					<dim>1</dim>
					<dim>1</dim>
				</port>
			</input>
			<output>
				<port id="2" precision="FP32">
					<dim>1</dim>
					<dim>384</dim>
					<dim>14</dim>
					<dim>14</dim>
				</port>
			</output>
		</layer>
		<layer id="194" name="Transpose_7466" type="Swish" version="opset4">
			<input>
				<port id="0" precision="FP32">
					<dim>1</dim>
					<dim>384</dim>
					<dim>14</dim>
					<dim>14</dim>
				</port>
			</input>
			<output>
				<port id="1" precision="FP32">
					<dim>1</dim>
					<dim>384</dim>
					<dim>14</dim>
					<dim>14</dim>
				</port>
			</output>
		</layer>
		<layer id="195" name="Constant_7468" type="Const" version="opset1">
			<data element_type="i32" shape="2" offset="409868" size="8" />
			<output>
				<port id="0" precision="I32">
					<dim>2</dim>
				</port>
			</output>
		</layer>
		<layer id="196" name="Transpose_7470" type="ReduceMean" version="opset1">
			<data keep_dims="false" />
			<input>
				<port id="0" precision="FP32">
					<dim>1</dim>
					<dim>384</dim>
					<dim>14</dim>
					<dim>14</dim>
				</port>
				<port id="1" precision="I32">
					<dim>2</dim>
				</port>
			</input>
			<output>
				<port id="2" precision="FP32" names="model/efficientnetv2-b0/block4c_se_squeeze/Mean,model/efficientnetv2-b0/block4c_se_squeeze/Mean:0">
					<dim>1</dim>
					<dim>384</dim>
				</port>
			</output>
		</layer>
		<layer id="197" name="Gather_7472" type="ShapeOf" version="opset3">
			<data output_type="i32" />
			<input>
				<port id="0" precision="FP32">
					<dim>1</dim>
					<dim>384</dim>
				</port>
			</input>
			<output>
				<port id="1" precision="I32" names="model/efficientnetv2-b0/block4c_se_reshape/Shape,model/efficientnetv2-b0/block4c_se_reshape/Shape:0">
					<dim>2</dim>
				</port>
			</output>
		</layer>
		<layer id="198" name="model/efficientnetv2-b0/block4c_se_reshape/strided_slice/stack" type="Const" version="opset1">
			<data element_type="i32" shape="1" offset="409876" size="4" />
			<rt_info>
				<attribute name="precise" version="0" />
			</rt_info>
			<output>
				<port id="0" precision="I32" names="model/efficientnetv2-b0/block4c_se_reshape/strided_slice/stack,model/efficientnetv2-b0/block4c_se_reshape/strided_slice/stack:0">
					<dim>1</dim>
				</port>
			</output>
		</layer>
		<layer id="199" name="model/efficientnetv2-b0/block4c_se_reshape/strided_slice/stack_1" type="Const" version="opset1">
			<data element_type="i32" shape="1" offset="409880" size="4" />
			<rt_info>
				<attribute name="precise" version="0" />
			</rt_info>
			<output>
				<port id="0" precision="I32" names="model/efficientnetv2-b0/block4c_se_reshape/strided_slice/stack_1,model/efficientnetv2-b0/block4c_se_reshape/strided_slice/stack_1:0">
					<dim>1</dim>
				</port>
			</output>
		</layer>
		<layer id="200" name="model/efficientnetv2-b0/block4c_se_reshape/strided_slice/stack_2" type="Const" version="opset1">
			<data element_type="i32" shape="1" offset="409880" size="4" />
			<rt_info>
				<attribute name="precise" version="0" />
			</rt_info>
			<output>
				<port id="0" precision="I32" names="model/efficientnetv2-b0/block4c_se_reshape/strided_slice/stack_2,model/efficientnetv2-b0/block4c_se_reshape/strided_slice/stack_2:0">
					<dim>1</dim>
				</port>
			</output>
		</layer>
		<layer id="201" name="model/efficientnetv2-b0/block4c_se_reshape/strided_slice" type="StridedSlice" version="opset1">
			<data begin_mask="0" end_mask="0" new_axis_mask="0" shrink_axis_mask="1" ellipsis_mask="0" />
			<input>
				<port id="0" precision="I32">
					<dim>2</dim>
				</port>
				<port id="1" precision="I32">
					<dim>1</dim>
				</port>
				<port id="2" precision="I32">
					<dim>1</dim>
				</port>
				<port id="3" precision="I32">
					<dim>1</dim>
				</port>
			</input>
			<output>
				<port id="4" precision="I32" names="model/efficientnetv2-b0/block4c_se_reshape/strided_slice,model/efficientnetv2-b0/block4c_se_reshape/strided_slice:0" />
			</output>
		</layer>
		<layer id="202" name="Constant_4128" type="Const" version="opset1">
			<data element_type="i64" shape="" offset="409884" size="8" />
			<rt_info>
				<attribute name="precise" version="0" />
			</rt_info>
			<output>
				<port id="0" precision="I64" />
			</output>
		</layer>
		<layer id="203" name="Unsqueeze_4129" type="Unsqueeze" version="opset1">
			<input>
				<port id="0" precision="I32" />
				<port id="1" precision="I64" />
			</input>
			<output>
				<port id="2" precision="I32">
					<dim>1</dim>
				</port>
			</output>
		</layer>
		<layer id="204" name="Unsqueeze_4130" type="Const" version="opset1">
			<data element_type="i32" shape="1" offset="409880" size="4" />
			<rt_info>
				<attribute name="precise" version="0" />
			</rt_info>
			<output>
				<port id="0" precision="I32">
					<dim>1</dim>
				</port>
			</output>
		</layer>
		<layer id="205" name="Unsqueeze_4131" type="Const" version="opset1">
			<data element_type="i32" shape="1" offset="409880" size="4" />
			<rt_info>
				<attribute name="precise" version="0" />
			</rt_info>
			<output>
				<port id="0" precision="I32">
					<dim>1</dim>
				</port>
			</output>
		</layer>
		<layer id="206" name="Unsqueeze_4132" type="Const" version="opset1">
			<data element_type="i32" shape="1" offset="538784" size="4" />
			<rt_info>
				<attribute name="precise" version="0" />
			</rt_info>
			<output>
				<port id="0" precision="I32">
					<dim>1</dim>
				</port>
			</output>
		</layer>
		<layer id="207" name="model/efficientnetv2-b0/block4c_se_reshape/Reshape/shape" type="Concat" version="opset1">
			<data axis="0" />
			<input>
				<port id="0" precision="I32">
					<dim>1</dim>
				</port>
				<port id="1" precision="I32">
					<dim>1</dim>
				</port>
				<port id="2" precision="I32">
					<dim>1</dim>
				</port>
				<port id="3" precision="I32">
					<dim>1</dim>
				</port>
			</input>
			<output>
				<port id="4" precision="I32" names="model/efficientnetv2-b0/block4c_se_reshape/Reshape/shape,model/efficientnetv2-b0/block4c_se_reshape/Reshape/shape:0">
					<dim>4</dim>
				</port>
			</output>
		</layer>
		<layer id="208" name="model/efficientnetv2-b0/block4c_se_reshape/Reshape" type="Reshape" version="opset1">
			<data special_zero="false" />
			<input>
				<port id="0" precision="FP32">
					<dim>1</dim>
					<dim>384</dim>
				</port>
				<port id="1" precision="I32">
					<dim>4</dim>
				</port>
			</input>
			<output>
				<port id="2" precision="FP32" names="model/efficientnetv2-b0/block4c_se_reshape/Reshape,model/efficientnetv2-b0/block4c_se_reshape/Reshape:0">
					<dim>1</dim>
					<dim>1</dim>
					<dim>1</dim>
					<dim>384</dim>
				</port>
			</output>
		</layer>
		<layer id="209" name="Constant_23435" type="Const" version="opset1">
			<data element_type="i64" shape="4" offset="538788" size="32" />
			<rt_info>
				<attribute name="precise" version="0" />
			</rt_info>
			<output>
				<port id="0" precision="I64">
					<dim>4</dim>
				</port>
			</output>
		</layer>
		<layer id="210" name="Transpose_4136" type="Reshape" version="opset1">
			<data special_zero="true" />
			<input>
				<port id="0" precision="FP32">
					<dim>1</dim>
					<dim>1</dim>
					<dim>1</dim>
					<dim>384</dim>
				</port>
				<port id="1" precision="I64">
					<dim>4</dim>
				</port>
			</input>
			<output>
				<port id="2" precision="FP32">
					<dim>1</dim>
					<dim>384</dim>
					<dim>1</dim>
					<dim>1</dim>
				</port>
			</output>
		</layer>
		<layer id="211" name="Transpose_4138_compressed" type="Const" version="opset1">
			<data element_type="f16" shape="24, 384, 1, 1" offset="732596" size="18432" />
			<output>
				<port id="0" precision="FP16">
					<dim>24</dim>
					<dim>384</dim>
					<dim>1</dim>
					<dim>1</dim>
				</port>
			</output>
		</layer>
		<layer id="212" name="Transpose_4138" type="Convert" version="opset1">
			<data destination_type="f32" />
			<rt_info>
				<attribute name="decompression" version="0" />
			</rt_info>
			<input>
				<port id="0" precision="FP16">
					<dim>24</dim>
					<dim>384</dim>
					<dim>1</dim>
					<dim>1</dim>
				</port>
			</input>
			<output>
				<port id="1" precision="FP32">
					<dim>24</dim>
					<dim>384</dim>
					<dim>1</dim>
					<dim>1</dim>
				</port>
			</output>
		</layer>
		<layer id="213" name="Convolution_4139" type="Convolution" version="opset1">
			<data strides="1, 1" dilations="1, 1" pads_begin="0, 0" pads_end="0, 0" auto_pad="same_upper" />
			<input>
				<port id="0" precision="FP32">
					<dim>1</dim>
					<dim>384</dim>
					<dim>1</dim>
					<dim>1</dim>
				</port>
				<port id="1" precision="FP32">
					<dim>24</dim>
					<dim>384</dim>
					<dim>1</dim>
					<dim>1</dim>
				</port>
			</input>
			<output>
				<port id="2" precision="FP32">
					<dim>1</dim>
					<dim>24</dim>
					<dim>1</dim>
					<dim>1</dim>
				</port>
			</output>
		</layer>
		<layer id="214" name="Transpose_7476_compressed" type="Const" version="opset1">
			<data element_type="f16" shape="1, 24, 1, 1" offset="751028" size="48" />
			<output>
				<port id="0" precision="FP16">
					<dim>1</dim>
					<dim>24</dim>
					<dim>1</dim>
					<dim>1</dim>
				</port>
			</output>
		</layer>
		<layer id="215" name="Transpose_7476" type="Convert" version="opset1">
			<data destination_type="f32" />
			<rt_info>
				<attribute name="decompression" version="0" />
			</rt_info>
			<input>
				<port id="0" precision="FP16">
					<dim>1</dim>
					<dim>24</dim>
					<dim>1</dim>
					<dim>1</dim>
				</port>
			</input>
			<output>
				<port id="1" precision="FP32">
					<dim>1</dim>
					<dim>24</dim>
					<dim>1</dim>
					<dim>1</dim>
				</port>
			</output>
		</layer>
		<layer id="216" name="Transpose_7478" type="Add" version="opset1">
			<data auto_broadcast="numpy" />
			<input>
				<port id="0" precision="FP32">
					<dim>1</dim>
					<dim>24</dim>
					<dim>1</dim>
					<dim>1</dim>
				</port>
				<port id="1" precision="FP32">
					<dim>1</dim>
					<dim>24</dim>
					<dim>1</dim>
					<dim>1</dim>
				</port>
			</input>
			<output>
				<port id="2" precision="FP32">
					<dim>1</dim>
					<dim>24</dim>
					<dim>1</dim>
					<dim>1</dim>
				</port>
			</output>
		</layer>
		<layer id="217" name="Transpose_7490" type="Swish" version="opset4">
			<input>
				<port id="0" precision="FP32">
					<dim>1</dim>
					<dim>24</dim>
					<dim>1</dim>
					<dim>1</dim>
				</port>
			</input>
			<output>
				<port id="1" precision="FP32">
					<dim>1</dim>
					<dim>24</dim>
					<dim>1</dim>
					<dim>1</dim>
				</port>
			</output>
		</layer>
		<layer id="218" name="Transpose_4150_compressed" type="Const" version="opset1">
			<data element_type="f16" shape="384, 24, 1, 1" offset="751076" size="18432" />
			<output>
				<port id="0" precision="FP16">
					<dim>384</dim>
					<dim>24</dim>
					<dim>1</dim>
					<dim>1</dim>
				</port>
			</output>
		</layer>
		<layer id="219" name="Transpose_4150" type="Convert" version="opset1">
			<data destination_type="f32" />
			<rt_info>
				<attribute name="decompression" version="0" />
			</rt_info>
			<input>
				<port id="0" precision="FP16">
					<dim>384</dim>
					<dim>24</dim>
					<dim>1</dim>
					<dim>1</dim>
				</port>
			</input>
			<output>
				<port id="1" precision="FP32">
					<dim>384</dim>
					<dim>24</dim>
					<dim>1</dim>
					<dim>1</dim>
				</port>
			</output>
		</layer>
		<layer id="220" name="Convolution_4151" type="Convolution" version="opset1">
			<data strides="1, 1" dilations="1, 1" pads_begin="0, 0" pads_end="0, 0" auto_pad="same_upper" />
			<input>
				<port id="0" precision="FP32">
					<dim>1</dim>
					<dim>24</dim>
					<dim>1</dim>
					<dim>1</dim>
				</port>
				<port id="1" precision="FP32">
					<dim>384</dim>
					<dim>24</dim>
					<dim>1</dim>
					<dim>1</dim>
				</port>
			</input>
			<output>
				<port id="2" precision="FP32">
					<dim>1</dim>
					<dim>384</dim>
					<dim>1</dim>
					<dim>1</dim>
				</port>
			</output>
		</layer>
		<layer id="221" name="Transpose_7494_compressed" type="Const" version="opset1">
			<data element_type="f16" shape="1, 384, 1, 1" offset="769508" size="768" />
			<output>
				<port id="0" precision="FP16">
					<dim>1</dim>
					<dim>384</dim>
					<dim>1</dim>
					<dim>1</dim>
				</port>
			</output>
		</layer>
		<layer id="222" name="Transpose_7494" type="Convert" version="opset1">
			<data destination_type="f32" />
			<rt_info>
				<attribute name="decompression" version="0" />
			</rt_info>
			<input>
				<port id="0" precision="FP16">
					<dim>1</dim>
					<dim>384</dim>
					<dim>1</dim>
					<dim>1</dim>
				</port>
			</input>
			<output>
				<port id="1" precision="FP32">
					<dim>1</dim>
					<dim>384</dim>
					<dim>1</dim>
					<dim>1</dim>
				</port>
			</output>
		</layer>
		<layer id="223" name="Transpose_7496" type="Add" version="opset1">
			<data auto_broadcast="numpy" />
			<input>
				<port id="0" precision="FP32">
					<dim>1</dim>
					<dim>384</dim>
					<dim>1</dim>
					<dim>1</dim>
				</port>
				<port id="1" precision="FP32">
					<dim>1</dim>
					<dim>384</dim>
					<dim>1</dim>
					<dim>1</dim>
				</port>
			</input>
			<output>
				<port id="2" precision="FP32">
					<dim>1</dim>
					<dim>384</dim>
					<dim>1</dim>
					<dim>1</dim>
				</port>
			</output>
		</layer>
		<layer id="224" name="Transpose_7498" type="Sigmoid" version="opset1">
			<input>
				<port id="0" precision="FP32">
					<dim>1</dim>
					<dim>384</dim>
					<dim>1</dim>
					<dim>1</dim>
				</port>
			</input>
			<output>
				<port id="1" precision="FP32">
					<dim>1</dim>
					<dim>384</dim>
					<dim>1</dim>
					<dim>1</dim>
				</port>
			</output>
		</layer>
		<layer id="225" name="Transpose_7502" type="Multiply" version="opset1">
			<data auto_broadcast="numpy" />
			<input>
				<port id="0" precision="FP32">
					<dim>1</dim>
					<dim>384</dim>
					<dim>14</dim>
					<dim>14</dim>
				</port>
				<port id="1" precision="FP32">
					<dim>1</dim>
					<dim>384</dim>
					<dim>1</dim>
					<dim>1</dim>
				</port>
			</input>
			<output>
				<port id="2" precision="FP32">
					<dim>1</dim>
					<dim>384</dim>
					<dim>14</dim>
					<dim>14</dim>
				</port>
			</output>
		</layer>
		<layer id="226" name="Multiply_26602_compressed" type="Const" version="opset1">
			<data element_type="f16" shape="96, 384, 1, 1" offset="770276" size="73728" />
			<output>
				<port id="0" precision="FP16">
					<dim>96</dim>
					<dim>384</dim>
					<dim>1</dim>
					<dim>1</dim>
				</port>
			</output>
		</layer>
		<layer id="227" name="Multiply_26602" type="Convert" version="opset1">
			<data destination_type="f32" />
			<rt_info>
				<attribute name="decompression" version="0" />
			</rt_info>
			<input>
				<port id="0" precision="FP16">
					<dim>96</dim>
					<dim>384</dim>
					<dim>1</dim>
					<dim>1</dim>
				</port>
			</input>
			<output>
				<port id="1" precision="FP32">
					<dim>96</dim>
					<dim>384</dim>
					<dim>1</dim>
					<dim>1</dim>
				</port>
			</output>
		</layer>
		<layer id="228" name="Multiply_24939" type="Convolution" version="opset1">
			<data strides="1, 1" dilations="1, 1" pads_begin="0, 0" pads_end="0, 0" auto_pad="same_upper" />
			<input>
				<port id="0" precision="FP32">
					<dim>1</dim>
					<dim>384</dim>
					<dim>14</dim>
					<dim>14</dim>
				</port>
				<port id="1" precision="FP32">
					<dim>96</dim>
					<dim>384</dim>
					<dim>1</dim>
					<dim>1</dim>
				</port>
			</input>
			<output>
				<port id="2" precision="FP32">
					<dim>1</dim>
					<dim>96</dim>
					<dim>14</dim>
					<dim>14</dim>
				</port>
			</output>
		</layer>
		<layer id="229" name="Constant_24947_compressed" type="Const" version="opset1">
			<data element_type="f16" shape="1, 96, 1, 1" offset="844004" size="192" />
			<output>
				<port id="0" precision="FP16">
					<dim>1</dim>
					<dim>96</dim>
					<dim>1</dim>
					<dim>1</dim>
				</port>
			</output>
		</layer>
		<layer id="230" name="Constant_24947" type="Convert" version="opset1">
			<data destination_type="f32" />
			<rt_info>
				<attribute name="decompression" version="0" />
			</rt_info>
			<input>
				<port id="0" precision="FP16">
					<dim>1</dim>
					<dim>96</dim>
					<dim>1</dim>
					<dim>1</dim>
				</port>
			</input>
			<output>
				<port id="1" precision="FP32">
					<dim>1</dim>
					<dim>96</dim>
					<dim>1</dim>
					<dim>1</dim>
				</port>
			</output>
		</layer>
		<layer id="231" name="Transpose_7554" type="Add" version="opset1">
			<data auto_broadcast="numpy" />
			<input>
				<port id="0" precision="FP32">
					<dim>1</dim>
					<dim>96</dim>
					<dim>14</dim>
					<dim>14</dim>
				</port>
				<port id="1" precision="FP32">
					<dim>1</dim>
					<dim>96</dim>
					<dim>1</dim>
					<dim>1</dim>
				</port>
			</input>
			<output>
				<port id="2" precision="FP32">
					<dim>1</dim>
					<dim>96</dim>
					<dim>14</dim>
					<dim>14</dim>
				</port>
			</output>
		</layer>
		<layer id="232" name="Transpose_7558" type="Add" version="opset1">
			<data auto_broadcast="numpy" />
			<input>
				<port id="0" precision="FP32">
					<dim>1</dim>
					<dim>96</dim>
					<dim>14</dim>
					<dim>14</dim>
				</port>
				<port id="1" precision="FP32">
					<dim>1</dim>
					<dim>96</dim>
					<dim>14</dim>
					<dim>14</dim>
				</port>
			</input>
			<output>
				<port id="2" precision="FP32">
					<dim>1</dim>
					<dim>96</dim>
					<dim>14</dim>
					<dim>14</dim>
				</port>
			</output>
		</layer>
		<layer id="233" name="Multiply_26606_compressed" type="Const" version="opset1">
			<data element_type="f16" shape="576, 96, 1, 1" offset="844196" size="110592" />
			<output>
				<port id="0" precision="FP16">
					<dim>576</dim>
					<dim>96</dim>
					<dim>1</dim>
					<dim>1</dim>
				</port>
			</output>
		</layer>
		<layer id="234" name="Multiply_26606" type="Convert" version="opset1">
			<data destination_type="f32" />
			<rt_info>
				<attribute name="decompression" version="0" />
			</rt_info>
			<input>
				<port id="0" precision="FP16">
					<dim>576</dim>
					<dim>96</dim>
					<dim>1</dim>
					<dim>1</dim>
				</port>
			</input>
			<output>
				<port id="1" precision="FP32">
					<dim>576</dim>
					<dim>96</dim>
					<dim>1</dim>
					<dim>1</dim>
				</port>
			</output>
		</layer>
		<layer id="235" name="Multiply_24953" type="Convolution" version="opset1">
			<data strides="1, 1" dilations="1, 1" pads_begin="0, 0" pads_end="0, 0" auto_pad="same_upper" />
			<input>
				<port id="0" precision="FP32">
					<dim>1</dim>
					<dim>96</dim>
					<dim>14</dim>
					<dim>14</dim>
				</port>
				<port id="1" precision="FP32">
					<dim>576</dim>
					<dim>96</dim>
					<dim>1</dim>
					<dim>1</dim>
				</port>
			</input>
			<output>
				<port id="2" precision="FP32">
					<dim>1</dim>
					<dim>576</dim>
					<dim>14</dim>
					<dim>14</dim>
				</port>
			</output>
		</layer>
		<layer id="236" name="Constant_24961_compressed" type="Const" version="opset1">
			<data element_type="f16" shape="1, 576, 1, 1" offset="954788" size="1152" />
			<output>
				<port id="0" precision="FP16">
					<dim>1</dim>
					<dim>576</dim>
					<dim>1</dim>
					<dim>1</dim>
				</port>
			</output>
		</layer>
		<layer id="237" name="Constant_24961" type="Convert" version="opset1">
			<data destination_type="f32" />
			<rt_info>
				<attribute name="decompression" version="0" />
			</rt_info>
			<input>
				<port id="0" precision="FP16">
					<dim>1</dim>
					<dim>576</dim>
					<dim>1</dim>
					<dim>1</dim>
				</port>
			</input>
			<output>
				<port id="1" precision="FP32">
					<dim>1</dim>
					<dim>576</dim>
					<dim>1</dim>
					<dim>1</dim>
				</port>
			</output>
		</layer>
		<layer id="238" name="Transpose_7610" type="Add" version="opset1">
			<data auto_broadcast="numpy" />
			<input>
				<port id="0" precision="FP32">
					<dim>1</dim>
					<dim>576</dim>
					<dim>14</dim>
					<dim>14</dim>
				</port>
				<port id="1" precision="FP32">
					<dim>1</dim>
					<dim>576</dim>
					<dim>1</dim>
					<dim>1</dim>
				</port>
			</input>
			<output>
				<port id="2" precision="FP32">
					<dim>1</dim>
					<dim>576</dim>
					<dim>14</dim>
					<dim>14</dim>
				</port>
			</output>
		</layer>
		<layer id="239" name="Transpose_7622" type="Swish" version="opset4">
			<input>
				<port id="0" precision="FP32">
					<dim>1</dim>
					<dim>576</dim>
					<dim>14</dim>
					<dim>14</dim>
				</port>
			</input>
			<output>
				<port id="1" precision="FP32">
					<dim>1</dim>
					<dim>576</dim>
					<dim>14</dim>
					<dim>14</dim>
				</port>
			</output>
		</layer>
		<layer id="240" name="Multiply_26610_compressed" type="Const" version="opset1">
			<data element_type="f16" shape="576, 1, 1, 3, 3" offset="955940" size="10368" />
			<output>
				<port id="0" precision="FP16">
					<dim>576</dim>
					<dim>1</dim>
					<dim>1</dim>
					<dim>3</dim>
					<dim>3</dim>
				</port>
			</output>
		</layer>
		<layer id="241" name="Multiply_26610" type="Convert" version="opset1">
			<data destination_type="f32" />
			<rt_info>
				<attribute name="decompression" version="0" />
			</rt_info>
			<input>
				<port id="0" precision="FP16">
					<dim>576</dim>
					<dim>1</dim>
					<dim>1</dim>
					<dim>3</dim>
					<dim>3</dim>
				</port>
			</input>
			<output>
				<port id="1" precision="FP32">
					<dim>576</dim>
					<dim>1</dim>
					<dim>1</dim>
					<dim>3</dim>
					<dim>3</dim>
				</port>
			</output>
		</layer>
		<layer id="242" name="Multiply_24967" type="GroupConvolution" version="opset1">
			<data strides="1, 1" pads_begin="0, 0" pads_end="0, 0" dilations="1, 1" auto_pad="same_upper" />
			<input>
				<port id="0" precision="FP32">
					<dim>1</dim>
					<dim>576</dim>
					<dim>14</dim>
					<dim>14</dim>
				</port>
				<port id="1" precision="FP32">
					<dim>576</dim>
					<dim>1</dim>
					<dim>1</dim>
					<dim>3</dim>
					<dim>3</dim>
				</port>
			</input>
			<output>
				<port id="2" precision="FP32">
					<dim>1</dim>
					<dim>576</dim>
					<dim>14</dim>
					<dim>14</dim>
				</port>
			</output>
		</layer>
		<layer id="243" name="Constant_24975_compressed" type="Const" version="opset1">
			<data element_type="f16" shape="1, 576, 1, 1" offset="966308" size="1152" />
			<output>
				<port id="0" precision="FP16">
					<dim>1</dim>
					<dim>576</dim>
					<dim>1</dim>
					<dim>1</dim>
				</port>
			</output>
		</layer>
		<layer id="244" name="Constant_24975" type="Convert" version="opset1">
			<data destination_type="f32" />
			<rt_info>
				<attribute name="decompression" version="0" />
			</rt_info>
			<input>
				<port id="0" precision="FP16">
					<dim>1</dim>
					<dim>576</dim>
					<dim>1</dim>
					<dim>1</dim>
				</port>
			</input>
			<output>
				<port id="1" precision="FP32">
					<dim>1</dim>
					<dim>576</dim>
					<dim>1</dim>
					<dim>1</dim>
				</port>
			</output>
		</layer>
		<layer id="245" name="Transpose_7674" type="Add" version="opset1">
			<data auto_broadcast="numpy" />
			<input>
				<port id="0" precision="FP32">
					<dim>1</dim>
					<dim>576</dim>
					<dim>14</dim>
					<dim>14</dim>
				</port>
				<port id="1" precision="FP32">
					<dim>1</dim>
					<dim>576</dim>
					<dim>1</dim>
					<dim>1</dim>
				</port>
			</input>
			<output>
				<port id="2" precision="FP32">
					<dim>1</dim>
					<dim>576</dim>
					<dim>14</dim>
					<dim>14</dim>
				</port>
			</output>
		</layer>
		<layer id="246" name="Transpose_7686" type="Swish" version="opset4">
			<input>
				<port id="0" precision="FP32">
					<dim>1</dim>
					<dim>576</dim>
					<dim>14</dim>
					<dim>14</dim>
				</port>
			</input>
			<output>
				<port id="1" precision="FP32">
					<dim>1</dim>
					<dim>576</dim>
					<dim>14</dim>
					<dim>14</dim>
				</port>
			</output>
		</layer>
		<layer id="247" name="Constant_7688" type="Const" version="opset1">
			<data element_type="i32" shape="2" offset="409868" size="8" />
			<output>
				<port id="0" precision="I32">
					<dim>2</dim>
				</port>
			</output>
		</layer>
		<layer id="248" name="Transpose_7690" type="ReduceMean" version="opset1">
			<data keep_dims="false" />
			<input>
				<port id="0" precision="FP32">
					<dim>1</dim>
					<dim>576</dim>
					<dim>14</dim>
					<dim>14</dim>
				</port>
				<port id="1" precision="I32">
					<dim>2</dim>
				</port>
			</input>
			<output>
				<port id="2" precision="FP32" names="model/efficientnetv2-b0/block5a_se_squeeze/Mean,model/efficientnetv2-b0/block5a_se_squeeze/Mean:0">
					<dim>1</dim>
					<dim>576</dim>
				</port>
			</output>
		</layer>
		<layer id="249" name="Gather_7692" type="ShapeOf" version="opset3">
			<data output_type="i32" />
			<input>
				<port id="0" precision="FP32">
					<dim>1</dim>
					<dim>576</dim>
				</port>
			</input>
			<output>
				<port id="1" precision="I32" names="model/efficientnetv2-b0/block5a_se_reshape/Shape,model/efficientnetv2-b0/block5a_se_reshape/Shape:0">
					<dim>2</dim>
				</port>
			</output>
		</layer>
		<layer id="250" name="model/efficientnetv2-b0/block5a_se_reshape/strided_slice/stack" type="Const" version="opset1">
			<data element_type="i32" shape="1" offset="409876" size="4" />
			<rt_info>
				<attribute name="precise" version="0" />
			</rt_info>
			<output>
				<port id="0" precision="I32" names="model/efficientnetv2-b0/block5a_se_reshape/strided_slice/stack,model/efficientnetv2-b0/block5a_se_reshape/strided_slice/stack:0">
					<dim>1</dim>
				</port>
			</output>
		</layer>
		<layer id="251" name="model/efficientnetv2-b0/block5a_se_reshape/strided_slice/stack_1" type="Const" version="opset1">
			<data element_type="i32" shape="1" offset="409880" size="4" />
			<rt_info>
				<attribute name="precise" version="0" />
			</rt_info>
			<output>
				<port id="0" precision="I32" names="model/efficientnetv2-b0/block5a_se_reshape/strided_slice/stack_1,model/efficientnetv2-b0/block5a_se_reshape/strided_slice/stack_1:0">
					<dim>1</dim>
				</port>
			</output>
		</layer>
		<layer id="252" name="model/efficientnetv2-b0/block5a_se_reshape/strided_slice/stack_2" type="Const" version="opset1">
			<data element_type="i32" shape="1" offset="409880" size="4" />
			<rt_info>
				<attribute name="precise" version="0" />
			</rt_info>
			<output>
				<port id="0" precision="I32" names="model/efficientnetv2-b0/block5a_se_reshape/strided_slice/stack_2,model/efficientnetv2-b0/block5a_se_reshape/strided_slice/stack_2:0">
					<dim>1</dim>
				</port>
			</output>
		</layer>
		<layer id="253" name="model/efficientnetv2-b0/block5a_se_reshape/strided_slice" type="StridedSlice" version="opset1">
			<data begin_mask="0" end_mask="0" new_axis_mask="0" shrink_axis_mask="1" ellipsis_mask="0" />
			<input>
				<port id="0" precision="I32">
					<dim>2</dim>
				</port>
				<port id="1" precision="I32">
					<dim>1</dim>
				</port>
				<port id="2" precision="I32">
					<dim>1</dim>
				</port>
				<port id="3" precision="I32">
					<dim>1</dim>
				</port>
			</input>
			<output>
				<port id="4" precision="I32" names="model/efficientnetv2-b0/block5a_se_reshape/strided_slice,model/efficientnetv2-b0/block5a_se_reshape/strided_slice:0" />
			</output>
		</layer>
		<layer id="254" name="Constant_4249" type="Const" version="opset1">
			<data element_type="i64" shape="" offset="409884" size="8" />
			<rt_info>
				<attribute name="precise" version="0" />
			</rt_info>
			<output>
				<port id="0" precision="I64" />
			</output>
		</layer>
		<layer id="255" name="Unsqueeze_4250" type="Unsqueeze" version="opset1">
			<input>
				<port id="0" precision="I32" />
				<port id="1" precision="I64" />
			</input>
			<output>
				<port id="2" precision="I32">
					<dim>1</dim>
				</port>
			</output>
		</layer>
		<layer id="256" name="Unsqueeze_4251" type="Const" version="opset1">
			<data element_type="i32" shape="1" offset="409880" size="4" />
			<rt_info>
				<attribute name="precise" version="0" />
			</rt_info>
			<output>
				<port id="0" precision="I32">
					<dim>1</dim>
				</port>
			</output>
		</layer>
		<layer id="257" name="Unsqueeze_4252" type="Const" version="opset1">
			<data element_type="i32" shape="1" offset="409880" size="4" />
			<rt_info>
				<attribute name="precise" version="0" />
			</rt_info>
			<output>
				<port id="0" precision="I32">
					<dim>1</dim>
				</port>
			</output>
		</layer>
		<layer id="258" name="Unsqueeze_4253" type="Const" version="opset1">
			<data element_type="i32" shape="1" offset="967460" size="4" />
			<rt_info>
				<attribute name="precise" version="0" />
			</rt_info>
			<output>
				<port id="0" precision="I32">
					<dim>1</dim>
				</port>
			</output>
		</layer>
		<layer id="259" name="model/efficientnetv2-b0/block5a_se_reshape/Reshape/shape" type="Concat" version="opset1">
			<data axis="0" />
			<input>
				<port id="0" precision="I32">
					<dim>1</dim>
				</port>
				<port id="1" precision="I32">
					<dim>1</dim>
				</port>
				<port id="2" precision="I32">
					<dim>1</dim>
				</port>
				<port id="3" precision="I32">
					<dim>1</dim>
				</port>
			</input>
			<output>
				<port id="4" precision="I32" names="model/efficientnetv2-b0/block5a_se_reshape/Reshape/shape,model/efficientnetv2-b0/block5a_se_reshape/Reshape/shape:0">
					<dim>4</dim>
				</port>
			</output>
		</layer>
		<layer id="260" name="model/efficientnetv2-b0/block5a_se_reshape/Reshape" type="Reshape" version="opset1">
			<data special_zero="false" />
			<input>
				<port id="0" precision="FP32">
					<dim>1</dim>
					<dim>576</dim>
				</port>
				<port id="1" precision="I32">
					<dim>4</dim>
				</port>
			</input>
			<output>
				<port id="2" precision="FP32" names="model/efficientnetv2-b0/block5a_se_reshape/Reshape,model/efficientnetv2-b0/block5a_se_reshape/Reshape:0">
					<dim>1</dim>
					<dim>1</dim>
					<dim>1</dim>
					<dim>576</dim>
				</port>
			</output>
		</layer>
		<layer id="261" name="Constant_23440" type="Const" version="opset1">
			<data element_type="i64" shape="4" offset="967464" size="32" />
			<rt_info>
				<attribute name="precise" version="0" />
			</rt_info>
			<output>
				<port id="0" precision="I64">
					<dim>4</dim>
				</port>
			</output>
		</layer>
		<layer id="262" name="Transpose_4257" type="Reshape" version="opset1">
			<data special_zero="true" />
			<input>
				<port id="0" precision="FP32">
					<dim>1</dim>
					<dim>1</dim>
					<dim>1</dim>
					<dim>576</dim>
				</port>
				<port id="1" precision="I64">
					<dim>4</dim>
				</port>
			</input>
			<output>
				<port id="2" precision="FP32">
					<dim>1</dim>
					<dim>576</dim>
					<dim>1</dim>
					<dim>1</dim>
				</port>
			</output>
		</layer>
		<layer id="263" name="Transpose_4259_compressed" type="Const" version="opset1">
			<data element_type="f16" shape="24, 576, 1, 1" offset="967496" size="27648" />
			<output>
				<port id="0" precision="FP16">
					<dim>24</dim>
					<dim>576</dim>
					<dim>1</dim>
					<dim>1</dim>
				</port>
			</output>
		</layer>
		<layer id="264" name="Transpose_4259" type="Convert" version="opset1">
			<data destination_type="f32" />
			<rt_info>
				<attribute name="decompression" version="0" />
			</rt_info>
			<input>
				<port id="0" precision="FP16">
					<dim>24</dim>
					<dim>576</dim>
					<dim>1</dim>
					<dim>1</dim>
				</port>
			</input>
			<output>
				<port id="1" precision="FP32">
					<dim>24</dim>
					<dim>576</dim>
					<dim>1</dim>
					<dim>1</dim>
				</port>
			</output>
		</layer>
		<layer id="265" name="Convolution_4260" type="Convolution" version="opset1">
			<data strides="1, 1" dilations="1, 1" pads_begin="0, 0" pads_end="0, 0" auto_pad="same_upper" />
			<input>
				<port id="0" precision="FP32">
					<dim>1</dim>
					<dim>576</dim>
					<dim>1</dim>
					<dim>1</dim>
				</port>
				<port id="1" precision="FP32">
					<dim>24</dim>
					<dim>576</dim>
					<dim>1</dim>
					<dim>1</dim>
				</port>
			</input>
			<output>
				<port id="2" precision="FP32">
					<dim>1</dim>
					<dim>24</dim>
					<dim>1</dim>
					<dim>1</dim>
				</port>
			</output>
		</layer>
		<layer id="266" name="Transpose_7696_compressed" type="Const" version="opset1">
			<data element_type="f16" shape="1, 24, 1, 1" offset="995144" size="48" />
			<output>
				<port id="0" precision="FP16">
					<dim>1</dim>
					<dim>24</dim>
					<dim>1</dim>
					<dim>1</dim>
				</port>
			</output>
		</layer>
		<layer id="267" name="Transpose_7696" type="Convert" version="opset1">
			<data destination_type="f32" />
			<rt_info>
				<attribute name="decompression" version="0" />
			</rt_info>
			<input>
				<port id="0" precision="FP16">
					<dim>1</dim>
					<dim>24</dim>
					<dim>1</dim>
					<dim>1</dim>
				</port>
			</input>
			<output>
				<port id="1" precision="FP32">
					<dim>1</dim>
					<dim>24</dim>
					<dim>1</dim>
					<dim>1</dim>
				</port>
			</output>
		</layer>
		<layer id="268" name="Transpose_7698" type="Add" version="opset1">
			<data auto_broadcast="numpy" />
			<input>
				<port id="0" precision="FP32">
					<dim>1</dim>
					<dim>24</dim>
					<dim>1</dim>
					<dim>1</dim>
				</port>
				<port id="1" precision="FP32">
					<dim>1</dim>
					<dim>24</dim>
					<dim>1</dim>
					<dim>1</dim>
				</port>
			</input>
			<output>
				<port id="2" precision="FP32">
					<dim>1</dim>
					<dim>24</dim>
					<dim>1</dim>
					<dim>1</dim>
				</port>
			</output>
		</layer>
		<layer id="269" name="Transpose_7710" type="Swish" version="opset4">
			<input>
				<port id="0" precision="FP32">
					<dim>1</dim>
					<dim>24</dim>
					<dim>1</dim>
					<dim>1</dim>
				</port>
			</input>
			<output>
				<port id="1" precision="FP32">
					<dim>1</dim>
					<dim>24</dim>
					<dim>1</dim>
					<dim>1</dim>
				</port>
			</output>
		</layer>
		<layer id="270" name="Transpose_4271_compressed" type="Const" version="opset1">
			<data element_type="f16" shape="576, 24, 1, 1" offset="995192" size="27648" />
			<output>
				<port id="0" precision="FP16">
					<dim>576</dim>
					<dim>24</dim>
					<dim>1</dim>
					<dim>1</dim>
				</port>
			</output>
		</layer>
		<layer id="271" name="Transpose_4271" type="Convert" version="opset1">
			<data destination_type="f32" />
			<rt_info>
				<attribute name="decompression" version="0" />
			</rt_info>
			<input>
				<port id="0" precision="FP16">
					<dim>576</dim>
					<dim>24</dim>
					<dim>1</dim>
					<dim>1</dim>
				</port>
			</input>
			<output>
				<port id="1" precision="FP32">
					<dim>576</dim>
					<dim>24</dim>
					<dim>1</dim>
					<dim>1</dim>
				</port>
			</output>
		</layer>
		<layer id="272" name="Convolution_4272" type="Convolution" version="opset1">
			<data strides="1, 1" dilations="1, 1" pads_begin="0, 0" pads_end="0, 0" auto_pad="same_upper" />
			<input>
				<port id="0" precision="FP32">
					<dim>1</dim>
					<dim>24</dim>
					<dim>1</dim>
					<dim>1</dim>
				</port>
				<port id="1" precision="FP32">
					<dim>576</dim>
					<dim>24</dim>
					<dim>1</dim>
					<dim>1</dim>
				</port>
			</input>
			<output>
				<port id="2" precision="FP32">
					<dim>1</dim>
					<dim>576</dim>
					<dim>1</dim>
					<dim>1</dim>
				</port>
			</output>
		</layer>
		<layer id="273" name="Transpose_7714_compressed" type="Const" version="opset1">
			<data element_type="f16" shape="1, 576, 1, 1" offset="1022840" size="1152" />
			<output>
				<port id="0" precision="FP16">
					<dim>1</dim>
					<dim>576</dim>
					<dim>1</dim>
					<dim>1</dim>
				</port>
			</output>
		</layer>
		<layer id="274" name="Transpose_7714" type="Convert" version="opset1">
			<data destination_type="f32" />
			<rt_info>
				<attribute name="decompression" version="0" />
			</rt_info>
			<input>
				<port id="0" precision="FP16">
					<dim>1</dim>
					<dim>576</dim>
					<dim>1</dim>
					<dim>1</dim>
				</port>
			</input>
			<output>
				<port id="1" precision="FP32">
					<dim>1</dim>
					<dim>576</dim>
					<dim>1</dim>
					<dim>1</dim>
				</port>
			</output>
		</layer>
		<layer id="275" name="Transpose_7716" type="Add" version="opset1">
			<data auto_broadcast="numpy" />
			<input>
				<port id="0" precision="FP32">
					<dim>1</dim>
					<dim>576</dim>
					<dim>1</dim>
					<dim>1</dim>
				</port>
				<port id="1" precision="FP32">
					<dim>1</dim>
					<dim>576</dim>
					<dim>1</dim>
					<dim>1</dim>
				</port>
			</input>
			<output>
				<port id="2" precision="FP32">
					<dim>1</dim>
					<dim>576</dim>
					<dim>1</dim>
					<dim>1</dim>
				</port>
			</output>
		</layer>
		<layer id="276" name="Transpose_7718" type="Sigmoid" version="opset1">
			<input>
				<port id="0" precision="FP32">
					<dim>1</dim>
					<dim>576</dim>
					<dim>1</dim>
					<dim>1</dim>
				</port>
			</input>
			<output>
				<port id="1" precision="FP32">
					<dim>1</dim>
					<dim>576</dim>
					<dim>1</dim>
					<dim>1</dim>
				</port>
			</output>
		</layer>
		<layer id="277" name="Transpose_7722" type="Multiply" version="opset1">
			<data auto_broadcast="numpy" />
			<input>
				<port id="0" precision="FP32">
					<dim>1</dim>
					<dim>576</dim>
					<dim>14</dim>
					<dim>14</dim>
				</port>
				<port id="1" precision="FP32">
					<dim>1</dim>
					<dim>576</dim>
					<dim>1</dim>
					<dim>1</dim>
				</port>
			</input>
			<output>
				<port id="2" precision="FP32">
					<dim>1</dim>
					<dim>576</dim>
					<dim>14</dim>
					<dim>14</dim>
				</port>
			</output>
		</layer>
		<layer id="278" name="Multiply_26613_compressed" type="Const" version="opset1">
			<data element_type="f16" shape="112, 576, 1, 1" offset="1023992" size="129024" />
			<output>
				<port id="0" precision="FP16">
					<dim>112</dim>
					<dim>576</dim>
					<dim>1</dim>
					<dim>1</dim>
				</port>
			</output>
		</layer>
		<layer id="279" name="Multiply_26613" type="Convert" version="opset1">
			<data destination_type="f32" />
			<rt_info>
				<attribute name="decompression" version="0" />
			</rt_info>
			<input>
				<port id="0" precision="FP16">
					<dim>112</dim>
					<dim>576</dim>
					<dim>1</dim>
					<dim>1</dim>
				</port>
			</input>
			<output>
				<port id="1" precision="FP32">
					<dim>112</dim>
					<dim>576</dim>
					<dim>1</dim>
					<dim>1</dim>
				</port>
			</output>
		</layer>
		<layer id="280" name="Multiply_24981" type="Convolution" version="opset1">
			<data strides="1, 1" dilations="1, 1" pads_begin="0, 0" pads_end="0, 0" auto_pad="same_upper" />
			<input>
				<port id="0" precision="FP32">
					<dim>1</dim>
					<dim>576</dim>
					<dim>14</dim>
					<dim>14</dim>
				</port>
				<port id="1" precision="FP32">
					<dim>112</dim>
					<dim>576</dim>
					<dim>1</dim>
					<dim>1</dim>
				</port>
			</input>
			<output>
				<port id="2" precision="FP32">
					<dim>1</dim>
					<dim>112</dim>
					<dim>14</dim>
					<dim>14</dim>
				</port>
			</output>
		</layer>
		<layer id="281" name="Constant_24989_compressed" type="Const" version="opset1">
			<data element_type="f16" shape="1, 112, 1, 1" offset="1153016" size="224" />
			<output>
				<port id="0" precision="FP16">
					<dim>1</dim>
					<dim>112</dim>
					<dim>1</dim>
					<dim>1</dim>
				</port>
			</output>
		</layer>
		<layer id="282" name="Constant_24989" type="Convert" version="opset1">
			<data destination_type="f32" />
			<rt_info>
				<attribute name="decompression" version="0" />
			</rt_info>
			<input>
				<port id="0" precision="FP16">
					<dim>1</dim>
					<dim>112</dim>
					<dim>1</dim>
					<dim>1</dim>
				</port>
			</input>
			<output>
				<port id="1" precision="FP32">
					<dim>1</dim>
					<dim>112</dim>
					<dim>1</dim>
					<dim>1</dim>
				</port>
			</output>
		</layer>
		<layer id="283" name="Transpose_7774" type="Add" version="opset1">
			<data auto_broadcast="numpy" />
			<input>
				<port id="0" precision="FP32">
					<dim>1</dim>
					<dim>112</dim>
					<dim>14</dim>
					<dim>14</dim>
				</port>
				<port id="1" precision="FP32">
					<dim>1</dim>
					<dim>112</dim>
					<dim>1</dim>
					<dim>1</dim>
				</port>
			</input>
			<output>
				<port id="2" precision="FP32">
					<dim>1</dim>
					<dim>112</dim>
					<dim>14</dim>
					<dim>14</dim>
				</port>
			</output>
		</layer>
		<layer id="284" name="Multiply_26617_compressed" type="Const" version="opset1">
			<data element_type="f16" shape="672, 112, 1, 1" offset="1153240" size="150528" />
			<output>
				<port id="0" precision="FP16">
					<dim>672</dim>
					<dim>112</dim>
					<dim>1</dim>
					<dim>1</dim>
				</port>
			</output>
		</layer>
		<layer id="285" name="Multiply_26617" type="Convert" version="opset1">
			<data destination_type="f32" />
			<rt_info>
				<attribute name="decompression" version="0" />
			</rt_info>
			<input>
				<port id="0" precision="FP16">
					<dim>672</dim>
					<dim>112</dim>
					<dim>1</dim>
					<dim>1</dim>
				</port>
			</input>
			<output>
				<port id="1" precision="FP32">
					<dim>672</dim>
					<dim>112</dim>
					<dim>1</dim>
					<dim>1</dim>
				</port>
			</output>
		</layer>
		<layer id="286" name="Multiply_24995" type="Convolution" version="opset1">
			<data strides="1, 1" dilations="1, 1" pads_begin="0, 0" pads_end="0, 0" auto_pad="same_upper" />
			<input>
				<port id="0" precision="FP32">
					<dim>1</dim>
					<dim>112</dim>
					<dim>14</dim>
					<dim>14</dim>
				</port>
				<port id="1" precision="FP32">
					<dim>672</dim>
					<dim>112</dim>
					<dim>1</dim>
					<dim>1</dim>
				</port>
			</input>
			<output>
				<port id="2" precision="FP32">
					<dim>1</dim>
					<dim>672</dim>
					<dim>14</dim>
					<dim>14</dim>
				</port>
			</output>
		</layer>
		<layer id="287" name="Constant_25003_compressed" type="Const" version="opset1">
			<data element_type="f16" shape="1, 672, 1, 1" offset="1303768" size="1344" />
			<output>
				<port id="0" precision="FP16">
					<dim>1</dim>
					<dim>672</dim>
					<dim>1</dim>
					<dim>1</dim>
				</port>
			</output>
		</layer>
		<layer id="288" name="Constant_25003" type="Convert" version="opset1">
			<data destination_type="f32" />
			<rt_info>
				<attribute name="decompression" version="0" />
			</rt_info>
			<input>
				<port id="0" precision="FP16">
					<dim>1</dim>
					<dim>672</dim>
					<dim>1</dim>
					<dim>1</dim>
				</port>
			</input>
			<output>
				<port id="1" precision="FP32">
					<dim>1</dim>
					<dim>672</dim>
					<dim>1</dim>
					<dim>1</dim>
				</port>
			</output>
		</layer>
		<layer id="289" name="Transpose_7826" type="Add" version="opset1">
			<data auto_broadcast="numpy" />
			<input>
				<port id="0" precision="FP32">
					<dim>1</dim>
					<dim>672</dim>
					<dim>14</dim>
					<dim>14</dim>
				</port>
				<port id="1" precision="FP32">
					<dim>1</dim>
					<dim>672</dim>
					<dim>1</dim>
					<dim>1</dim>
				</port>
			</input>
			<output>
				<port id="2" precision="FP32">
					<dim>1</dim>
					<dim>672</dim>
					<dim>14</dim>
					<dim>14</dim>
				</port>
			</output>
		</layer>
		<layer id="290" name="Transpose_7838" type="Swish" version="opset4">
			<input>
				<port id="0" precision="FP32">
					<dim>1</dim>
					<dim>672</dim>
					<dim>14</dim>
					<dim>14</dim>
				</port>
			</input>
			<output>
				<port id="1" precision="FP32">
					<dim>1</dim>
					<dim>672</dim>
					<dim>14</dim>
					<dim>14</dim>
				</port>
			</output>
		</layer>
		<layer id="291" name="Multiply_26621_compressed" type="Const" version="opset1">
			<data element_type="f16" shape="672, 1, 1, 3, 3" offset="1305112" size="12096" />
			<output>
				<port id="0" precision="FP16">
					<dim>672</dim>
					<dim>1</dim>
					<dim>1</dim>
					<dim>3</dim>
					<dim>3</dim>
				</port>
			</output>
		</layer>
		<layer id="292" name="Multiply_26621" type="Convert" version="opset1">
			<data destination_type="f32" />
			<rt_info>
				<attribute name="decompression" version="0" />
			</rt_info>
			<input>
				<port id="0" precision="FP16">
					<dim>672</dim>
					<dim>1</dim>
					<dim>1</dim>
					<dim>3</dim>
					<dim>3</dim>
				</port>
			</input>
			<output>
				<port id="1" precision="FP32">
					<dim>672</dim>
					<dim>1</dim>
					<dim>1</dim>
					<dim>3</dim>
					<dim>3</dim>
				</port>
			</output>
		</layer>
		<layer id="293" name="Multiply_25009" type="GroupConvolution" version="opset1">
			<data strides="1, 1" pads_begin="0, 0" pads_end="0, 0" dilations="1, 1" auto_pad="same_upper" />
			<input>
				<port id="0" precision="FP32">
					<dim>1</dim>
					<dim>672</dim>
					<dim>14</dim>
					<dim>14</dim>
				</port>
				<port id="1" precision="FP32">
					<dim>672</dim>
					<dim>1</dim>
					<dim>1</dim>
					<dim>3</dim>
					<dim>3</dim>
				</port>
			</input>
			<output>
				<port id="2" precision="FP32">
					<dim>1</dim>
					<dim>672</dim>
					<dim>14</dim>
					<dim>14</dim>
				</port>
			</output>
		</layer>
		<layer id="294" name="Constant_25017_compressed" type="Const" version="opset1">
			<data element_type="f16" shape="1, 672, 1, 1" offset="1317208" size="1344" />
			<output>
				<port id="0" precision="FP16">
					<dim>1</dim>
					<dim>672</dim>
					<dim>1</dim>
					<dim>1</dim>
				</port>
			</output>
		</layer>
		<layer id="295" name="Constant_25017" type="Convert" version="opset1">
			<data destination_type="f32" />
			<rt_info>
				<attribute name="decompression" version="0" />
			</rt_info>
			<input>
				<port id="0" precision="FP16">
					<dim>1</dim>
					<dim>672</dim>
					<dim>1</dim>
					<dim>1</dim>
				</port>
			</input>
			<output>
				<port id="1" precision="FP32">
					<dim>1</dim>
					<dim>672</dim>
					<dim>1</dim>
					<dim>1</dim>
				</port>
			</output>
		</layer>
		<layer id="296" name="Transpose_7890" type="Add" version="opset1">
			<data auto_broadcast="numpy" />
			<input>
				<port id="0" precision="FP32">
					<dim>1</dim>
					<dim>672</dim>
					<dim>14</dim>
					<dim>14</dim>
				</port>
				<port id="1" precision="FP32">
					<dim>1</dim>
					<dim>672</dim>
					<dim>1</dim>
					<dim>1</dim>
				</port>
			</input>
			<output>
				<port id="2" precision="FP32">
					<dim>1</dim>
					<dim>672</dim>
					<dim>14</dim>
					<dim>14</dim>
				</port>
			</output>
		</layer>
		<layer id="297" name="Transpose_7902" type="Swish" version="opset4">
			<input>
				<port id="0" precision="FP32">
					<dim>1</dim>
					<dim>672</dim>
					<dim>14</dim>
					<dim>14</dim>
				</port>
			</input>
			<output>
				<port id="1" precision="FP32">
					<dim>1</dim>
					<dim>672</dim>
					<dim>14</dim>
					<dim>14</dim>
				</port>
			</output>
		</layer>
		<layer id="298" name="Constant_7904" type="Const" version="opset1">
			<data element_type="i32" shape="2" offset="409868" size="8" />
			<output>
				<port id="0" precision="I32">
					<dim>2</dim>
				</port>
			</output>
		</layer>
		<layer id="299" name="Transpose_7906" type="ReduceMean" version="opset1">
			<data keep_dims="false" />
			<input>
				<port id="0" precision="FP32">
					<dim>1</dim>
					<dim>672</dim>
					<dim>14</dim>
					<dim>14</dim>
				</port>
				<port id="1" precision="I32">
					<dim>2</dim>
				</port>
			</input>
			<output>
				<port id="2" precision="FP32" names="model/efficientnetv2-b0/block5b_se_squeeze/Mean,model/efficientnetv2-b0/block5b_se_squeeze/Mean:0">
					<dim>1</dim>
					<dim>672</dim>
				</port>
			</output>
		</layer>
		<layer id="300" name="Gather_7908" type="ShapeOf" version="opset3">
			<data output_type="i32" />
			<input>
				<port id="0" precision="FP32">
					<dim>1</dim>
					<dim>672</dim>
				</port>
			</input>
			<output>
				<port id="1" precision="I32" names="model/efficientnetv2-b0/block5b_se_reshape/Shape,model/efficientnetv2-b0/block5b_se_reshape/Shape:0">
					<dim>2</dim>
				</port>
			</output>
		</layer>
		<layer id="301" name="model/efficientnetv2-b0/block5b_se_reshape/strided_slice/stack" type="Const" version="opset1">
			<data element_type="i32" shape="1" offset="409876" size="4" />
			<rt_info>
				<attribute name="precise" version="0" />
			</rt_info>
			<output>
				<port id="0" precision="I32" names="model/efficientnetv2-b0/block5b_se_reshape/strided_slice/stack,model/efficientnetv2-b0/block5b_se_reshape/strided_slice/stack:0">
					<dim>1</dim>
				</port>
			</output>
		</layer>
		<layer id="302" name="model/efficientnetv2-b0/block5b_se_reshape/strided_slice/stack_1" type="Const" version="opset1">
			<data element_type="i32" shape="1" offset="409880" size="4" />
			<rt_info>
				<attribute name="precise" version="0" />
			</rt_info>
			<output>
				<port id="0" precision="I32" names="model/efficientnetv2-b0/block5b_se_reshape/strided_slice/stack_1,model/efficientnetv2-b0/block5b_se_reshape/strided_slice/stack_1:0">
					<dim>1</dim>
				</port>
			</output>
		</layer>
		<layer id="303" name="model/efficientnetv2-b0/block5b_se_reshape/strided_slice/stack_2" type="Const" version="opset1">
			<data element_type="i32" shape="1" offset="409880" size="4" />
			<rt_info>
				<attribute name="precise" version="0" />
			</rt_info>
			<output>
				<port id="0" precision="I32" names="model/efficientnetv2-b0/block5b_se_reshape/strided_slice/stack_2,model/efficientnetv2-b0/block5b_se_reshape/strided_slice/stack_2:0">
					<dim>1</dim>
				</port>
			</output>
		</layer>
		<layer id="304" name="model/efficientnetv2-b0/block5b_se_reshape/strided_slice" type="StridedSlice" version="opset1">
			<data begin_mask="0" end_mask="0" new_axis_mask="0" shrink_axis_mask="1" ellipsis_mask="0" />
			<input>
				<port id="0" precision="I32">
					<dim>2</dim>
				</port>
				<port id="1" precision="I32">
					<dim>1</dim>
				</port>
				<port id="2" precision="I32">
					<dim>1</dim>
				</port>
				<port id="3" precision="I32">
					<dim>1</dim>
				</port>
			</input>
			<output>
				<port id="4" precision="I32" names="model/efficientnetv2-b0/block5b_se_reshape/strided_slice,model/efficientnetv2-b0/block5b_se_reshape/strided_slice:0" />
			</output>
		</layer>
		<layer id="305" name="Constant_4395" type="Const" version="opset1">
			<data element_type="i64" shape="" offset="409884" size="8" />
			<rt_info>
				<attribute name="precise" version="0" />
			</rt_info>
			<output>
				<port id="0" precision="I64" />
			</output>
		</layer>
		<layer id="306" name="Unsqueeze_4396" type="Unsqueeze" version="opset1">
			<input>
				<port id="0" precision="I32" />
				<port id="1" precision="I64" />
			</input>
			<output>
				<port id="2" precision="I32">
					<dim>1</dim>
				</port>
			</output>
		</layer>
		<layer id="307" name="Unsqueeze_4397" type="Const" version="opset1">
			<data element_type="i32" shape="1" offset="409880" size="4" />
			<rt_info>
				<attribute name="precise" version="0" />
			</rt_info>
			<output>
				<port id="0" precision="I32">
					<dim>1</dim>
				</port>
			</output>
		</layer>
		<layer id="308" name="Unsqueeze_4398" type="Const" version="opset1">
			<data element_type="i32" shape="1" offset="409880" size="4" />
			<rt_info>
				<attribute name="precise" version="0" />
			</rt_info>
			<output>
				<port id="0" precision="I32">
					<dim>1</dim>
				</port>
			</output>
		</layer>
		<layer id="309" name="Unsqueeze_4399" type="Const" version="opset1">
			<data element_type="i32" shape="1" offset="1318552" size="4" />
			<rt_info>
				<attribute name="precise" version="0" />
			</rt_info>
			<output>
				<port id="0" precision="I32">
					<dim>1</dim>
				</port>
			</output>
		</layer>
		<layer id="310" name="model/efficientnetv2-b0/block5b_se_reshape/Reshape/shape" type="Concat" version="opset1">
			<data axis="0" />
			<input>
				<port id="0" precision="I32">
					<dim>1</dim>
				</port>
				<port id="1" precision="I32">
					<dim>1</dim>
				</port>
				<port id="2" precision="I32">
					<dim>1</dim>
				</port>
				<port id="3" precision="I32">
					<dim>1</dim>
				</port>
			</input>
			<output>
				<port id="4" precision="I32" names="model/efficientnetv2-b0/block5b_se_reshape/Reshape/shape,model/efficientnetv2-b0/block5b_se_reshape/Reshape/shape:0">
					<dim>4</dim>
				</port>
			</output>
		</layer>
		<layer id="311" name="model/efficientnetv2-b0/block5b_se_reshape/Reshape" type="Reshape" version="opset1">
			<data special_zero="false" />
			<input>
				<port id="0" precision="FP32">
					<dim>1</dim>
					<dim>672</dim>
				</port>
				<port id="1" precision="I32">
					<dim>4</dim>
				</port>
			</input>
			<output>
				<port id="2" precision="FP32" names="model/efficientnetv2-b0/block5b_se_reshape/Reshape,model/efficientnetv2-b0/block5b_se_reshape/Reshape:0">
					<dim>1</dim>
					<dim>1</dim>
					<dim>1</dim>
					<dim>672</dim>
				</port>
			</output>
		</layer>
		<layer id="312" name="Constant_23445" type="Const" version="opset1">
			<data element_type="i64" shape="4" offset="1318556" size="32" />
			<rt_info>
				<attribute name="precise" version="0" />
			</rt_info>
			<output>
				<port id="0" precision="I64">
					<dim>4</dim>
				</port>
			</output>
		</layer>
		<layer id="313" name="Transpose_4403" type="Reshape" version="opset1">
			<data special_zero="true" />
			<input>
				<port id="0" precision="FP32">
					<dim>1</dim>
					<dim>1</dim>
					<dim>1</dim>
					<dim>672</dim>
				</port>
				<port id="1" precision="I64">
					<dim>4</dim>
				</port>
			</input>
			<output>
				<port id="2" precision="FP32">
					<dim>1</dim>
					<dim>672</dim>
					<dim>1</dim>
					<dim>1</dim>
				</port>
			</output>
		</layer>
		<layer id="314" name="Transpose_4405_compressed" type="Const" version="opset1">
			<data element_type="f16" shape="28, 672, 1, 1" offset="1318588" size="37632" />
			<output>
				<port id="0" precision="FP16">
					<dim>28</dim>
					<dim>672</dim>
					<dim>1</dim>
					<dim>1</dim>
				</port>
			</output>
		</layer>
		<layer id="315" name="Transpose_4405" type="Convert" version="opset1">
			<data destination_type="f32" />
			<rt_info>
				<attribute name="decompression" version="0" />
			</rt_info>
			<input>
				<port id="0" precision="FP16">
					<dim>28</dim>
					<dim>672</dim>
					<dim>1</dim>
					<dim>1</dim>
				</port>
			</input>
			<output>
				<port id="1" precision="FP32">
					<dim>28</dim>
					<dim>672</dim>
					<dim>1</dim>
					<dim>1</dim>
				</port>
			</output>
		</layer>
		<layer id="316" name="Convolution_4406" type="Convolution" version="opset1">
			<data strides="1, 1" dilations="1, 1" pads_begin="0, 0" pads_end="0, 0" auto_pad="same_upper" />
			<input>
				<port id="0" precision="FP32">
					<dim>1</dim>
					<dim>672</dim>
					<dim>1</dim>
					<dim>1</dim>
				</port>
				<port id="1" precision="FP32">
					<dim>28</dim>
					<dim>672</dim>
					<dim>1</dim>
					<dim>1</dim>
				</port>
			</input>
			<output>
				<port id="2" precision="FP32">
					<dim>1</dim>
					<dim>28</dim>
					<dim>1</dim>
					<dim>1</dim>
				</port>
			</output>
		</layer>
		<layer id="317" name="Transpose_7912_compressed" type="Const" version="opset1">
			<data element_type="f16" shape="1, 28, 1, 1" offset="1356220" size="56" />
			<output>
				<port id="0" precision="FP16">
					<dim>1</dim>
					<dim>28</dim>
					<dim>1</dim>
					<dim>1</dim>
				</port>
			</output>
		</layer>
		<layer id="318" name="Transpose_7912" type="Convert" version="opset1">
			<data destination_type="f32" />
			<rt_info>
				<attribute name="decompression" version="0" />
			</rt_info>
			<input>
				<port id="0" precision="FP16">
					<dim>1</dim>
					<dim>28</dim>
					<dim>1</dim>
					<dim>1</dim>
				</port>
			</input>
			<output>
				<port id="1" precision="FP32">
					<dim>1</dim>
					<dim>28</dim>
					<dim>1</dim>
					<dim>1</dim>
				</port>
			</output>
		</layer>
		<layer id="319" name="Transpose_7914" type="Add" version="opset1">
			<data auto_broadcast="numpy" />
			<input>
				<port id="0" precision="FP32">
					<dim>1</dim>
					<dim>28</dim>
					<dim>1</dim>
					<dim>1</dim>
				</port>
				<port id="1" precision="FP32">
					<dim>1</dim>
					<dim>28</dim>
					<dim>1</dim>
					<dim>1</dim>
				</port>
			</input>
			<output>
				<port id="2" precision="FP32">
					<dim>1</dim>
					<dim>28</dim>
					<dim>1</dim>
					<dim>1</dim>
				</port>
			</output>
		</layer>
		<layer id="320" name="Transpose_7926" type="Swish" version="opset4">
			<input>
				<port id="0" precision="FP32">
					<dim>1</dim>
					<dim>28</dim>
					<dim>1</dim>
					<dim>1</dim>
				</port>
			</input>
			<output>
				<port id="1" precision="FP32">
					<dim>1</dim>
					<dim>28</dim>
					<dim>1</dim>
					<dim>1</dim>
				</port>
			</output>
		</layer>
		<layer id="321" name="Transpose_4417_compressed" type="Const" version="opset1">
			<data element_type="f16" shape="672, 28, 1, 1" offset="1356276" size="37632" />
			<output>
				<port id="0" precision="FP16">
					<dim>672</dim>
					<dim>28</dim>
					<dim>1</dim>
					<dim>1</dim>
				</port>
			</output>
		</layer>
		<layer id="322" name="Transpose_4417" type="Convert" version="opset1">
			<data destination_type="f32" />
			<rt_info>
				<attribute name="decompression" version="0" />
			</rt_info>
			<input>
				<port id="0" precision="FP16">
					<dim>672</dim>
					<dim>28</dim>
					<dim>1</dim>
					<dim>1</dim>
				</port>
			</input>
			<output>
				<port id="1" precision="FP32">
					<dim>672</dim>
					<dim>28</dim>
					<dim>1</dim>
					<dim>1</dim>
				</port>
			</output>
		</layer>
		<layer id="323" name="Convolution_4418" type="Convolution" version="opset1">
			<data strides="1, 1" dilations="1, 1" pads_begin="0, 0" pads_end="0, 0" auto_pad="same_upper" />
			<input>
				<port id="0" precision="FP32">
					<dim>1</dim>
					<dim>28</dim>
					<dim>1</dim>
					<dim>1</dim>
				</port>
				<port id="1" precision="FP32">
					<dim>672</dim>
					<dim>28</dim>
					<dim>1</dim>
					<dim>1</dim>
				</port>
			</input>
			<output>
				<port id="2" precision="FP32">
					<dim>1</dim>
					<dim>672</dim>
					<dim>1</dim>
					<dim>1</dim>
				</port>
			</output>
		</layer>
		<layer id="324" name="Transpose_7930_compressed" type="Const" version="opset1">
			<data element_type="f16" shape="1, 672, 1, 1" offset="1393908" size="1344" />
			<output>
				<port id="0" precision="FP16">
					<dim>1</dim>
					<dim>672</dim>
					<dim>1</dim>
					<dim>1</dim>
				</port>
			</output>
		</layer>
		<layer id="325" name="Transpose_7930" type="Convert" version="opset1">
			<data destination_type="f32" />
			<rt_info>
				<attribute name="decompression" version="0" />
			</rt_info>
			<input>
				<port id="0" precision="FP16">
					<dim>1</dim>
					<dim>672</dim>
					<dim>1</dim>
					<dim>1</dim>
				</port>
			</input>
			<output>
				<port id="1" precision="FP32">
					<dim>1</dim>
					<dim>672</dim>
					<dim>1</dim>
					<dim>1</dim>
				</port>
			</output>
		</layer>
		<layer id="326" name="Transpose_7932" type="Add" version="opset1">
			<data auto_broadcast="numpy" />
			<input>
				<port id="0" precision="FP32">
					<dim>1</dim>
					<dim>672</dim>
					<dim>1</dim>
					<dim>1</dim>
				</port>
				<port id="1" precision="FP32">
					<dim>1</dim>
					<dim>672</dim>
					<dim>1</dim>
					<dim>1</dim>
				</port>
			</input>
			<output>
				<port id="2" precision="FP32">
					<dim>1</dim>
					<dim>672</dim>
					<dim>1</dim>
					<dim>1</dim>
				</port>
			</output>
		</layer>
		<layer id="327" name="Transpose_7934" type="Sigmoid" version="opset1">
			<input>
				<port id="0" precision="FP32">
					<dim>1</dim>
					<dim>672</dim>
					<dim>1</dim>
					<dim>1</dim>
				</port>
			</input>
			<output>
				<port id="1" precision="FP32">
					<dim>1</dim>
					<dim>672</dim>
					<dim>1</dim>
					<dim>1</dim>
				</port>
			</output>
		</layer>
		<layer id="328" name="Transpose_7938" type="Multiply" version="opset1">
			<data auto_broadcast="numpy" />
			<input>
				<port id="0" precision="FP32">
					<dim>1</dim>
					<dim>672</dim>
					<dim>14</dim>
					<dim>14</dim>
				</port>
				<port id="1" precision="FP32">
					<dim>1</dim>
					<dim>672</dim>
					<dim>1</dim>
					<dim>1</dim>
				</port>
			</input>
			<output>
				<port id="2" precision="FP32">
					<dim>1</dim>
					<dim>672</dim>
					<dim>14</dim>
					<dim>14</dim>
				</port>
			</output>
		</layer>
		<layer id="329" name="Multiply_26624_compressed" type="Const" version="opset1">
			<data element_type="f16" shape="112, 672, 1, 1" offset="1395252" size="150528" />
			<output>
				<port id="0" precision="FP16">
					<dim>112</dim>
					<dim>672</dim>
					<dim>1</dim>
					<dim>1</dim>
				</port>
			</output>
		</layer>
		<layer id="330" name="Multiply_26624" type="Convert" version="opset1">
			<data destination_type="f32" />
			<rt_info>
				<attribute name="decompression" version="0" />
			</rt_info>
			<input>
				<port id="0" precision="FP16">
					<dim>112</dim>
					<dim>672</dim>
					<dim>1</dim>
					<dim>1</dim>
				</port>
			</input>
			<output>
				<port id="1" precision="FP32">
					<dim>112</dim>
					<dim>672</dim>
					<dim>1</dim>
					<dim>1</dim>
				</port>
			</output>
		</layer>
		<layer id="331" name="Multiply_25023" type="Convolution" version="opset1">
			<data strides="1, 1" dilations="1, 1" pads_begin="0, 0" pads_end="0, 0" auto_pad="same_upper" />
			<input>
				<port id="0" precision="FP32">
					<dim>1</dim>
					<dim>672</dim>
					<dim>14</dim>
					<dim>14</dim>
				</port>
				<port id="1" precision="FP32">
					<dim>112</dim>
					<dim>672</dim>
					<dim>1</dim>
					<dim>1</dim>
				</port>
			</input>
			<output>
				<port id="2" precision="FP32">
					<dim>1</dim>
					<dim>112</dim>
					<dim>14</dim>
					<dim>14</dim>
				</port>
			</output>
		</layer>
		<layer id="332" name="Constant_25031_compressed" type="Const" version="opset1">
			<data element_type="f16" shape="1, 112, 1, 1" offset="1545780" size="224" />
			<output>
				<port id="0" precision="FP16">
					<dim>1</dim>
					<dim>112</dim>
					<dim>1</dim>
					<dim>1</dim>
				</port>
			</output>
		</layer>
		<layer id="333" name="Constant_25031" type="Convert" version="opset1">
			<data destination_type="f32" />
			<rt_info>
				<attribute name="decompression" version="0" />
			</rt_info>
			<input>
				<port id="0" precision="FP16">
					<dim>1</dim>
					<dim>112</dim>
					<dim>1</dim>
					<dim>1</dim>
				</port>
			</input>
			<output>
				<port id="1" precision="FP32">
					<dim>1</dim>
					<dim>112</dim>
					<dim>1</dim>
					<dim>1</dim>
				</port>
			</output>
		</layer>
		<layer id="334" name="Transpose_7990" type="Add" version="opset1">
			<data auto_broadcast="numpy" />
			<input>
				<port id="0" precision="FP32">
					<dim>1</dim>
					<dim>112</dim>
					<dim>14</dim>
					<dim>14</dim>
				</port>
				<port id="1" precision="FP32">
					<dim>1</dim>
					<dim>112</dim>
					<dim>1</dim>
					<dim>1</dim>
				</port>
			</input>
			<output>
				<port id="2" precision="FP32">
					<dim>1</dim>
					<dim>112</dim>
					<dim>14</dim>
					<dim>14</dim>
				</port>
			</output>
		</layer>
		<layer id="335" name="Transpose_7994" type="Add" version="opset1">
			<data auto_broadcast="numpy" />
			<input>
				<port id="0" precision="FP32">
					<dim>1</dim>
					<dim>112</dim>
					<dim>14</dim>
					<dim>14</dim>
				</port>
				<port id="1" precision="FP32">
					<dim>1</dim>
					<dim>112</dim>
					<dim>14</dim>
					<dim>14</dim>
				</port>
			</input>
			<output>
				<port id="2" precision="FP32">
					<dim>1</dim>
					<dim>112</dim>
					<dim>14</dim>
					<dim>14</dim>
				</port>
			</output>
		</layer>
…
		<edge from-layer="1357" from-port="2" to-layer="1359" to-port="0" />
		<edge from-layer="1358" from-port="0" to-layer="1359" to-port="1" />
		<edge from-layer="1359" from-port="2" to-layer="1362" to-port="0" />
		<edge from-layer="1360" from-port="0" to-layer="1361" to-port="0" />
		<edge from-layer="1361" from-port="1" to-layer="1362" to-port="1" />
		<edge from-layer="1362" from-port="2" to-layer="1365" to-port="0" />
		<edge from-layer="1363" from-port="0" to-layer="1364" to-port="0" />
		<edge from-layer="1364" from-port="1" to-layer="1365" to-port="1" />
		<edge from-layer="1365" from-port="2" to-layer="1366" to-port="0" />
		<edge from-layer="1366" from-port="1" to-layer="1369" to-port="0" />
		<edge from-layer="1367" from-port="0" to-layer="1368" to-port="0" />
		<edge from-layer="1368" from-port="1" to-layer="1369" to-port="1" />
		<edge from-layer="1369" from-port="2" to-layer="1372" to-port="0" />
		<edge from-layer="1370" from-port="0" to-layer="1371" to-port="0" />
		<edge from-layer="1371" from-port="1" to-layer="1372" to-port="1" />
		<edge from-layer="1372" from-port="2" to-layer="1373" to-port="0" />
		<edge from-layer="1373" from-port="1" to-layer="1374" to-port="1" />
		<edge from-layer="1374" from-port="2" to-layer="1377" to-port="0" />
		<edge from-layer="1375" from-port="0" to-layer="1376" to-port="0" />
		<edge from-layer="1376" from-port="1" to-layer="1377" to-port="1" />
		<edge from-layer="1377" from-port="2" to-layer="1380" to-port="0" />
		<edge from-layer="1378" from-port="0" to-layer="1379" to-port="0" />
		<edge from-layer="1379" from-port="1" to-layer="1380" to-port="1" />
		<edge from-layer="1380" from-port="2" to-layer="1381" to-port="0" />
		<edge from-layer="1381" from-port="2" to-layer="1384" to-port="0" />
		<edge from-layer="1381" from-port="2" to-layer="1433" to-port="1" />
		<edge from-layer="1382" from-port="0" to-layer="1383" to-port="0" />
		<edge from-layer="1383" from-port="1" to-layer="1384" to-port="1" />
		<edge from-layer="1384" from-port="2" to-layer="1387" to-port="0" />
		<edge from-layer="1385" from-port="0" to-layer="1386" to-port="0" />
		<edge from-layer="1386" from-port="1" to-layer="1387" to-port="1" />
		<edge from-layer="1387" from-port="2" to-layer="1388" to-port="0" />
		<edge from-layer="1388" from-port="1" to-layer="1391" to-port="0" />
		<edge from-layer="1389" from-port="0" to-layer="1390" to-port="0" />
		<edge from-layer="1390" from-port="1" to-layer="1391" to-port="1" />
		<edge from-layer="1391" from-port="2" to-layer="1394" to-port="0" />
		<edge from-layer="1392" from-port="0" to-layer="1393" to-port="0" />
		<edge from-layer="1393" from-port="1" to-layer="1394" to-port="1" />
		<edge from-layer="1394" from-port="2" to-layer="1395" to-port="0" />
		<edge from-layer="1395" from-port="1" to-layer="1397" to-port="0" />
		<edge from-layer="1395" from-port="1" to-layer="1426" to-port="0" />
		<edge from-layer="1396" from-port="0" to-layer="1397" to-port="1" />
		<edge from-layer="1397" from-port="2" to-layer="1398" to-port="0" />
		<edge from-layer="1397" from-port="2" to-layer="1409" to-port="0" />
		<edge from-layer="1398" from-port="1" to-layer="1402" to-port="0" />
		<edge from-layer="1399" from-port="0" to-layer="1402" to-port="1" />
		<edge from-layer="1400" from-port="0" to-layer="1402" to-port="2" />
		<edge from-layer="1401" from-port="0" to-layer="1402" to-port="3" />
		<edge from-layer="1402" from-port="4" to-layer="1404" to-port="0" />
		<edge from-layer="1403" from-port="0" to-layer="1404" to-port="1" />
		<edge from-layer="1404" from-port="2" to-layer="1408" to-port="0" />
		<edge from-layer="1405" from-port="0" to-layer="1408" to-port="1" />
		<edge from-layer="1406" from-port="0" to-layer="1408" to-port="2" />
		<edge from-layer="1407" from-port="0" to-layer="1408" to-port="3" />
		<edge from-layer="1408" from-port="4" to-layer="1409" to-port="1" />
		<edge from-layer="1409" from-port="2" to-layer="1411" to-port="0" />
		<edge from-layer="1410" from-port="0" to-layer="1411" to-port="1" />
		<edge from-layer="1411" from-port="2" to-layer="1414" to-port="0" />
		<edge from-layer="1412" from-port="0" to-layer="1413" to-port="0" />
		<edge from-layer="1413" from-port="1" to-layer="1414" to-port="1" />
		<edge from-layer="1414" from-port="2" to-layer="1417" to-port="0" />
		<edge from-layer="1415" from-port="0" to-layer="1416" to-port="0" />
		<edge from-layer="1416" from-port="1" to-layer="1417" to-port="1" />
		<edge from-layer="1417" from-port="2" to-layer="1418" to-port="0" />
		<edge from-layer="1418" from-port="1" to-layer="1421" to-port="0" />
		<edge from-layer="1419" from-port="0" to-layer="1420" to-port="0" />
		<edge from-layer="1420" from-port="1" to-layer="1421" to-port="1" />
		<edge from-layer="1421" from-port="2" to-layer="1424" to-port="0" />
		<edge from-layer="1422" from-port="0" to-layer="1423" to-port="0" />
		<edge from-layer="1423" from-port="1" to-layer="1424" to-port="1" />
		<edge from-layer="1424" from-port="2" to-layer="1425" to-port="0" />
		<edge from-layer="1425" from-port="1" to-layer="1426" to-port="1" />
		<edge from-layer="1426" from-port="2" to-layer="1429" to-port="0" />
		<edge from-layer="1427" from-port="0" to-layer="1428" to-port="0" />
		<edge from-layer="1428" from-port="1" to-layer="1429" to-port="1" />
		<edge from-layer="1429" from-port="2" to-layer="1432" to-port="0" />
		<edge from-layer="1430" from-port="0" to-layer="1431" to-port="0" />
		<edge from-layer="1431" from-port="1" to-layer="1432" to-port="1" />
		<edge from-layer="1432" from-port="2" to-layer="1433" to-port="0" />
		<edge from-layer="1433" from-port="2" to-layer="1436" to-port="0" />
		<edge from-layer="1433" from-port="2" to-layer="1485" to-port="1" />
		<edge from-layer="1434" from-port="0" to-layer="1435" to-port="0" />
		<edge from-layer="1435" from-port="1" to-layer="1436" to-port="1" />
		<edge from-layer="1436" from-port="2" to-layer="1439" to-port="0" />
		<edge from-layer="1437" from-port="0" to-layer="1438" to-port="0" />
		<edge from-layer="1438" from-port="1" to-layer="1439" to-port="1" />
		<edge from-layer="1439" from-port="2" to-layer="1440" to-port="0" />
		<edge from-layer="1440" from-port="1" to-layer="1443" to-port="0" />
		<edge from-layer="1441" from-port="0" to-layer="1442" to-port="0" />
		<edge from-layer="1442" from-port="1" to-layer="1443" to-port="1" />
		<edge from-layer="1443" from-port="2" to-layer="1446" to-port="0" />
		<edge from-layer="1444" from-port="0" to-layer="1445" to-port="0" />
		<edge from-layer="1445" from-port="1" to-layer="1446" to-port="1" />
		<edge from-layer="1446" from-port="2" to-layer="1447" to-port="0" />
		<edge from-layer="1447" from-port="1" to-layer="1449" to-port="0" />
		<edge from-layer="1447" from-port="1" to-layer="1478" to-port="0" />
		<edge from-layer="1448" from-port="0" to-layer="1449" to-port="1" />
		<edge from-layer="1449" from-port="2" to-layer="1461" to-port="0" />
		<edge from-layer="1449" from-port="2" to-layer="1450" to-port="0" />
		<edge from-layer="1450" from-port="1" to-layer="1454" to-port="0" />
		<edge from-layer="1451" from-port="0" to-layer="1454" to-port="1" />
		<edge from-layer="1452" from-port="0" to-layer="1454" to-port="2" />
		<edge from-layer="1453" from-port="0" to-layer="1454" to-port="3" />
		<edge from-layer="1454" from-port="4" to-layer="1456" to-port="0" />
		<edge from-layer="1455" from-port="0" to-layer="1456" to-port="1" />
		<edge from-layer="1456" from-port="2" to-layer="1460" to-port="0" />
		<edge from-layer="1457" from-port="0" to-layer="1460" to-port="1" />
		<edge from-layer="1458" from-port="0" to-layer="1460" to-port="2" />
		<edge from-layer="1459" from-port="0" to-layer="1460" to-port="3" />
		<edge from-layer="1460" from-port="4" to-layer="1461" to-port="1" />
		<edge from-layer="1461" from-port="2" to-layer="1463" to-port="0" />
		<edge from-layer="1462" from-port="0" to-layer="1463" to-port="1" />
		<edge from-layer="1463" from-port="2" to-layer="1466" to-port="0" />
		<edge from-layer="1464" from-port="0" to-layer="1465" to-port="0" />
		<edge from-layer="1465" from-port="1" to-layer="1466" to-port="1" />
		<edge from-layer="1466" from-port="2" to-layer="1469" to-port="0" />
		<edge from-layer="1467" from-port="0" to-layer="1468" to-port="0" />
		<edge from-layer="1468" from-port="1" to-layer="1469" to-port="1" />
		<edge from-layer="1469" from-port="2" to-layer="1470" to-port="0" />
		<edge from-layer="1470" from-port="1" to-layer="1473" to-port="0" />
		<edge from-layer="1471" from-port="0" to-layer="1472" to-port="0" />
		<edge from-layer="1472" from-port="1" to-layer="1473" to-port="1" />
		<edge from-layer="1473" from-port="2" to-layer="1476" to-port="0" />
		<edge from-layer="1474" from-port="0" to-layer="1475" to-port="0" />
		<edge from-layer="1475" from-port="1" to-layer="1476" to-port="1" />
		<edge from-layer="1476" from-port="2" to-layer="1477" to-port="0" />
		<edge from-layer="1477" from-port="1" to-layer="1478" to-port="1" />
		<edge from-layer="1478" from-port="2" to-layer="1481" to-port="0" />
		<edge from-layer="1479" from-port="0" to-layer="1480" to-port="0" />
		<edge from-layer="1480" from-port="1" to-layer="1481" to-port="1" />
		<edge from-layer="1481" from-port="2" to-layer="1484" to-port="0" />
		<edge from-layer="1482" from-port="0" to-layer="1483" to-port="0" />
		<edge from-layer="1483" from-port="1" to-layer="1484" to-port="1" />
		<edge from-layer="1484" from-port="2" to-layer="1485" to-port="0" />
		<edge from-layer="1485" from-port="2" to-layer="1488" to-port="0" />
		<edge from-layer="1485" from-port="2" to-layer="1537" to-port="1" />
		<edge from-layer="1486" from-port="0" to-layer="1487" to-port="0" />
		<edge from-layer="1487" from-port="1" to-layer="1488" to-port="1" />
		<edge from-layer="1488" from-port="2" to-layer="1491" to-port="0" />
		<edge from-layer="1489" from-port="0" to-layer="1490" to-port="0" />
		<edge from-layer="1490" from-port="1" to-layer="1491" to-port="1" />
		<edge from-layer="1491" from-port="2" to-layer="1492" to-port="0" />
		<edge from-layer="1492" from-port="1" to-layer="1495" to-port="0" />
		<edge from-layer="1493" from-port="0" to-layer="1494" to-port="0" />
		<edge from-layer="1494" from-port="1" to-layer="1495" to-port="1" />
		<edge from-layer="1495" from-port="2" to-layer="1498" to-port="0" />
		<edge from-layer="1496" from-port="0" to-layer="1497" to-port="0" />
		<edge from-layer="1497" from-port="1" to-layer="1498" to-port="1" />
		<edge from-layer="1498" from-port="2" to-layer="1499" to-port="0" />
		<edge from-layer="1499" from-port="1" to-layer="1501" to-port="0" />
		<edge from-layer="1499" from-port="1" to-layer="1530" to-port="0" />
		<edge from-layer="1500" from-port="0" to-layer="1501" to-port="1" />
		<edge from-layer="1501" from-port="2" to-layer="1502" to-port="0" />
		<edge from-layer="1501" from-port="2" to-layer="1513" to-port="0" />
		<edge from-layer="1502" from-port="1" to-layer="1506" to-port="0" />
		<edge from-layer="1503" from-port="0" to-layer="1506" to-port="1" />
		<edge from-layer="1504" from-port="0" to-layer="1506" to-port="2" />
		<edge from-layer="1505" from-port="0" to-layer="1506" to-port="3" />
		<edge from-layer="1506" from-port="4" to-layer="1508" to-port="0" />
		<edge from-layer="1507" from-port="0" to-layer="1508" to-port="1" />
		<edge from-layer="1508" from-port="2" to-layer="1512" to-port="0" />
		<edge from-layer="1509" from-port="0" to-layer="1512" to-port="1" />
		<edge from-layer="1510" from-port="0" to-layer="1512" to-port="2" />
		<edge from-layer="1511" from-port="0" to-layer="1512" to-port="3" />
		<edge from-layer="1512" from-port="4" to-layer="1513" to-port="1" />
		<edge from-layer="1513" from-port="2" to-layer="1515" to-port="0" />
		<edge from-layer="1514" from-port="0" to-layer="1515" to-port="1" />
		<edge from-layer="1515" from-port="2" to-layer="1518" to-port="0" />
		<edge from-layer="1516" from-port="0" to-layer="1517" to-port="0" />
		<edge from-layer="1517" from-port="1" to-layer="1518" to-port="1" />
		<edge from-layer="1518" from-port="2" to-layer="1521" to-port="0" />
		<edge from-layer="1519" from-port="0" to-layer="1520" to-port="0" />
		<edge from-layer="1520" from-port="1" to-layer="1521" to-port="1" />
		<edge from-layer="1521" from-port="2" to-layer="1522" to-port="0" />
		<edge from-layer="1522" from-port="1" to-layer="1525" to-port="0" />
		<edge from-layer="1523" from-port="0" to-layer="1524" to-port="0" />
		<edge from-layer="1524" from-port="1" to-layer="1525" to-port="1" />
		<edge from-layer="1525" from-port="2" to-layer="1528" to-port="0" />
		<edge from-layer="1526" from-port="0" to-layer="1527" to-port="0" />
		<edge from-layer="1527" from-port="1" to-layer="1528" to-port="1" />
		<edge from-layer="1528" from-port="2" to-layer="1529" to-port="0" />
		<edge from-layer="1529" from-port="1" to-layer="1530" to-port="1" />
		<edge from-layer="1530" from-port="2" to-layer="1533" to-port="0" />
		<edge from-layer="1531" from-port="0" to-layer="1532" to-port="0" />
		<edge from-layer="1532" from-port="1" to-layer="1533" to-port="1" />
		<edge from-layer="1533" from-port="2" to-layer="1536" to-port="0" />
		<edge from-layer="1534" from-port="0" to-layer="1535" to-port="0" />
		<edge from-layer="1535" from-port="1" to-layer="1536" to-port="1" />
		<edge from-layer="1536" from-port="2" to-layer="1537" to-port="0" />
		<edge from-layer="1537" from-port="2" to-layer="1540" to-port="0" />
		<edge from-layer="1538" from-port="0" to-layer="1539" to-port="0" />
		<edge from-layer="1539" from-port="1" to-layer="1540" to-port="1" />
		<edge from-layer="1540" from-port="2" to-layer="1543" to-port="0" />
		<edge from-layer="1541" from-port="0" to-layer="1542" to-port="0" />
		<edge from-layer="1542" from-port="1" to-layer="1543" to-port="1" />
		<edge from-layer="1543" from-port="2" to-layer="1544" to-port="0" />
		<edge from-layer="1544" from-port="1" to-layer="1547" to-port="0" />
		<edge from-layer="1545" from-port="0" to-layer="1546" to-port="0" />
		<edge from-layer="1546" from-port="1" to-layer="1547" to-port="1" />
		<edge from-layer="1547" from-port="2" to-layer="1550" to-port="0" />
		<edge from-layer="1548" from-port="0" to-layer="1549" to-port="0" />
		<edge from-layer="1549" from-port="1" to-layer="1550" to-port="1" />
		<edge from-layer="1550" from-port="2" to-layer="1551" to-port="0" />
		<edge from-layer="1551" from-port="1" to-layer="1553" to-port="0" />
		<edge from-layer="1551" from-port="1" to-layer="1582" to-port="0" />
		<edge from-layer="1552" from-port="0" to-layer="1553" to-port="1" />
		<edge from-layer="1553" from-port="2" to-layer="1554" to-port="0" />
		<edge from-layer="1553" from-port="2" to-layer="1565" to-port="0" />
		<edge from-layer="1554" from-port="1" to-layer="1558" to-port="0" />
		<edge from-layer="1555" from-port="0" to-layer="1558" to-port="1" />
		<edge from-layer="1556" from-port="0" to-layer="1558" to-port="2" />
		<edge from-layer="1557" from-port="0" to-layer="1558" to-port="3" />
		<edge from-layer="1558" from-port="4" to-layer="1560" to-port="0" />
		<edge from-layer="1559" from-port="0" to-layer="1560" to-port="1" />
		<edge from-layer="1560" from-port="2" to-layer="1564" to-port="0" />
		<edge from-layer="1561" from-port="0" to-layer="1564" to-port="1" />
		<edge from-layer="1562" from-port="0" to-layer="1564" to-port="2" />
		<edge from-layer="1563" from-port="0" to-layer="1564" to-port="3" />
		<edge from-layer="1564" from-port="4" to-layer="1565" to-port="1" />
		<edge from-layer="1565" from-port="2" to-layer="1567" to-port="0" />
		<edge from-layer="1566" from-port="0" to-layer="1567" to-port="1" />
		<edge from-layer="1567" from-port="2" to-layer="1570" to-port="0" />
		<edge from-layer="1568" from-port="0" to-layer="1569" to-port="0" />
		<edge from-layer="1569" from-port="1" to-layer="1570" to-port="1" />
		<edge from-layer="1570" from-port="2" to-layer="1573" to-port="0" />
		<edge from-layer="1571" from-port="0" to-layer="1572" to-port="0" />
		<edge from-layer="1572" from-port="1" to-layer="1573" to-port="1" />
		<edge from-layer="1573" from-port="2" to-layer="1574" to-port="0" />
		<edge from-layer="1574" from-port="1" to-layer="1577" to-port="0" />
		<edge from-layer="1575" from-port="0" to-layer="1576" to-port="0" />
		<edge from-layer="1576" from-port="1" to-layer="1577" to-port="1" />
		<edge from-layer="1577" from-port="2" to-layer="1580" to-port="0" />
		<edge from-layer="1578" from-port="0" to-layer="1579" to-port="0" />
		<edge from-layer="1579" from-port="1" to-layer="1580" to-port="1" />
		<edge from-layer="1580" from-port="2" to-layer="1581" to-port="0" />
		<edge from-layer="1581" from-port="1" to-layer="1582" to-port="1" />
		<edge from-layer="1582" from-port="2" to-layer="1585" to-port="0" />
		<edge from-layer="1583" from-port="0" to-layer="1584" to-port="0" />
		<edge from-layer="1584" from-port="1" to-layer="1585" to-port="1" />
		<edge from-layer="1585" from-port="2" to-layer="1588" to-port="0" />
		<edge from-layer="1586" from-port="0" to-layer="1587" to-port="0" />
		<edge from-layer="1587" from-port="1" to-layer="1588" to-port="1" />
		<edge from-layer="1588" from-port="2" to-layer="1591" to-port="0" />
		<edge from-layer="1588" from-port="2" to-layer="1640" to-port="1" />
		<edge from-layer="1589" from-port="0" to-layer="1590" to-port="0" />
		<edge from-layer="1590" from-port="1" to-layer="1591" to-port="1" />
		<edge from-layer="1591" from-port="2" to-layer="1594" to-port="0" />
		<edge from-layer="1592" from-port="0" to-layer="1593" to-port="0" />
		<edge from-layer="1593" from-port="1" to-layer="1594" to-port="1" />
		<edge from-layer="1594" from-port="2" to-layer="1595" to-port="0" />
		<edge from-layer="1595" from-port="1" to-layer="1598" to-port="0" />
		<edge from-layer="1596" from-port="0" to-layer="1597" to-port="0" />
		<edge from-layer="1597" from-port="1" to-layer="1598" to-port="1" />
		<edge from-layer="1598" from-port="2" to-layer="1601" to-port="0" />
		<edge from-layer="1599" from-port="0" to-layer="1600" to-port="0" />
		<edge from-layer="1600" from-port="1" to-layer="1601" to-port="1" />
		<edge from-layer="1601" from-port="2" to-layer="1602" to-port="0" />
		<edge from-layer="1602" from-port="1" to-layer="1604" to-port="0" />
		<edge from-layer="1602" from-port="1" to-layer="1633" to-port="0" />
		<edge from-layer="1603" from-port="0" to-layer="1604" to-port="1" />
		<edge from-layer="1604" from-port="2" to-layer="1605" to-port="0" />
		<edge from-layer="1604" from-port="2" to-layer="1616" to-port="0" />
		<edge from-layer="1605" from-port="1" to-layer="1609" to-port="0" />
		<edge from-layer="1606" from-port="0" to-layer="1609" to-port="1" />
		<edge from-layer="1607" from-port="0" to-layer="1609" to-port="2" />
		<edge from-layer="1608" from-port="0" to-layer="1609" to-port="3" />
		<edge from-layer="1609" from-port="4" to-layer="1611" to-port="0" />
		<edge from-layer="1610" from-port="0" to-layer="1611" to-port="1" />
		<edge from-layer="1611" from-port="2" to-layer="1615" to-port="0" />
		<edge from-layer="1612" from-port="0" to-layer="1615" to-port="1" />
		<edge from-layer="1613" from-port="0" to-layer="1615" to-port="2" />
		<edge from-layer="1614" from-port="0" to-layer="1615" to-port="3" />
		<edge from-layer="1615" from-port="4" to-layer="1616" to-port="1" />
		<edge from-layer="1616" from-port="2" to-layer="1618" to-port="0" />
		<edge from-layer="1617" from-port="0" to-layer="1618" to-port="1" />
		<edge from-layer="1618" from-port="2" to-layer="1621" to-port="0" />
		<edge from-layer="1619" from-port="0" to-layer="1620" to-port="0" />
		<edge from-layer="1620" from-port="1" to-layer="1621" to-port="1" />
		<edge from-layer="1621" from-port="2" to-layer="1624" to-port="0" />
		<edge from-layer="1622" from-port="0" to-layer="1623" to-port="0" />
		<edge from-layer="1623" from-port="1" to-layer="1624" to-port="1" />
		<edge from-layer="1624" from-port="2" to-layer="1625" to-port="0" />
		<edge from-layer="1625" from-port="1" to-layer="1628" to-port="0" />
		<edge from-layer="1626" from-port="0" to-layer="1627" to-port="0" />
		<edge from-layer="1627" from-port="1" to-layer="1628" to-port="1" />
		<edge from-layer="1628" from-port="2" to-layer="1631" to-port="0" />
		<edge from-layer="1629" from-port="0" to-layer="1630" to-port="0" />
		<edge from-layer="1630" from-port="1" to-layer="1631" to-port="1" />
		<edge from-layer="1631" from-port="2" to-layer="1632" to-port="0" />
		<edge from-layer="1632" from-port="1" to-layer="1633" to-port="1" />
		<edge from-layer="1633" from-port="2" to-layer="1636" to-port="0" />
		<edge from-layer="1634" from-port="0" to-layer="1635" to-port="0" />
		<edge from-layer="1635" from-port="1" to-layer="1636" to-port="1" />
		<edge from-layer="1636" from-port="2" to-layer="1639" to-port="0" />
		<edge from-layer="1637" from-port="0" to-layer="1638" to-port="0" />
		<edge from-layer="1638" from-port="1" to-layer="1639" to-port="1" />
		<edge from-layer="1639" from-port="2" to-layer="1640" to-port="0" />
		<edge from-layer="1640" from-port="2" to-layer="1643" to-port="0" />
		<edge from-layer="1640" from-port="2" to-layer="1692" to-port="1" />
		<edge from-layer="1641" from-port="0" to-layer="1642" to-port="0" />
		<edge from-layer="1642" from-port="1" to-layer="1643" to-port="1" />
		<edge from-layer="1643" from-port="2" to-layer="1646" to-port="0" />
		<edge from-layer="1644" from-port="0" to-layer="1645" to-port="0" />
		<edge from-layer="1645" from-port="1" to-layer="1646" to-port="1" />
		<edge from-layer="1646" from-port="2" to-layer="1647" to-port="0" />
		<edge from-layer="1647" from-port="1" to-layer="1650" to-port="0" />
		<edge from-layer="1648" from-port="0" to-layer="1649" to-port="0" />
		<edge from-layer="1649" from-port="1" to-layer="1650" to-port="1" />
		<edge from-layer="1650" from-port="2" to-layer="1653" to-port="0" />
		<edge from-layer="1651" from-port="0" to-layer="1652" to-port="0" />
		<edge from-layer="1652" from-port="1" to-layer="1653" to-port="1" />
		<edge from-layer="1653" from-port="2" to-layer="1654" to-port="0" />
		<edge from-layer="1654" from-port="1" to-layer="1685" to-port="0" />
		<edge from-layer="1654" from-port="1" to-layer="1656" to-port="0" />
		<edge from-layer="1655" from-port="0" to-layer="1656" to-port="1" />
		<edge from-layer="1656" from-port="2" to-layer="1668" to-port="0" />
		<edge from-layer="1656" from-port="2" to-layer="1657" to-port="0" />
		<edge from-layer="1657" from-port="1" to-layer="1661" to-port="0" />
		<edge from-layer="1658" from-port="0" to-layer="1661" to-port="1" />
		<edge from-layer="1659" from-port="0" to-layer="1661" to-port="2" />
		<edge from-layer="1660" from-port="0" to-layer="1661" to-port="3" />
		<edge from-layer="1661" from-port="4" to-layer="1663" to-port="0" />
		<edge from-layer="1662" from-port="0" to-layer="1663" to-port="1" />
		<edge from-layer="1663" from-port="2" to-layer="1667" to-port="0" />
		<edge from-layer="1664" from-port="0" to-layer="1667" to-port="1" />
		<edge from-layer="1665" from-port="0" to-layer="1667" to-port="2" />
		<edge from-layer="1666" from-port="0" to-layer="1667" to-port="3" />
		<edge from-layer="1667" from-port="4" to-layer="1668" to-port="1" />
		<edge from-layer="1668" from-port="2" to-layer="1670" to-port="0" />
		<edge from-layer="1669" from-port="0" to-layer="1670" to-port="1" />
		<edge from-layer="1670" from-port="2" to-layer="1673" to-port="0" />
		<edge from-layer="1671" from-port="0" to-layer="1672" to-port="0" />
		<edge from-layer="1672" from-port="1" to-layer="1673" to-port="1" />
		<edge from-layer="1673" from-port="2" to-layer="1676" to-port="0" />
		<edge from-layer="1674" from-port="0" to-layer="1675" to-port="0" />
		<edge from-layer="1675" from-port="1" to-layer="1676" to-port="1" />
		<edge from-layer="1676" from-port="2" to-layer="1677" to-port="0" />
		<edge from-layer="1677" from-port="1" to-layer="1680" to-port="0" />
		<edge from-layer="1678" from-port="0" to-layer="1679" to-port="0" />
		<edge from-layer="1679" from-port="1" to-layer="1680" to-port="1" />
		<edge from-layer="1680" from-port="2" to-layer="1683" to-port="0" />
		<edge from-layer="1681" from-port="0" to-layer="1682" to-port="0" />
		<edge from-layer="1682" from-port="1" to-layer="1683" to-port="1" />
		<edge from-layer="1683" from-port="2" to-layer="1684" to-port="0" />
		<edge from-layer="1684" from-port="1" to-layer="1685" to-port="1" />
		<edge from-layer="1685" from-port="2" to-layer="1688" to-port="0" />
		<edge from-layer="1686" from-port="0" to-layer="1687" to-port="0" />
		<edge from-layer="1687" from-port="1" to-layer="1688" to-port="1" />
		<edge from-layer="1688" from-port="2" to-layer="1691" to-port="0" />
		<edge from-layer="1689" from-port="0" to-layer="1690" to-port="0" />
		<edge from-layer="1690" from-port="1" to-layer="1691" to-port="1" />
		<edge from-layer="1691" from-port="2" to-layer="1692" to-port="0" />
		<edge from-layer="1692" from-port="2" to-layer="1695" to-port="0" />
		<edge from-layer="1692" from-port="2" to-layer="1744" to-port="1" />
		<edge from-layer="1693" from-port="0" to-layer="1694" to-port="0" />
		<edge from-layer="1694" from-port="1" to-layer="1695" to-port="1" />
		<edge from-layer="1695" from-port="2" to-layer="1698" to-port="0" />
		<edge from-layer="1696" from-port="0" to-layer="1697" to-port="0" />
		<edge from-layer="1697" from-port="1" to-layer="1698" to-port="1" />
		<edge from-layer="1698" from-port="2" to-layer="1699" to-port="0" />
		<edge from-layer="1699" from-port="1" to-layer="1702" to-port="0" />
		<edge from-layer="1700" from-port="0" to-layer="1701" to-port="0" />
		<edge from-layer="1701" from-port="1" to-layer="1702" to-port="1" />
		<edge from-layer="1702" from-port="2" to-layer="1705" to-port="0" />
		<edge from-layer="1703" from-port="0" to-layer="1704" to-port="0" />
		<edge from-layer="1704" from-port="1" to-layer="1705" to-port="1" />
		<edge from-layer="1705" from-port="2" to-layer="1706" to-port="0" />
		<edge from-layer="1706" from-port="1" to-layer="1708" to-port="0" />
		<edge from-layer="1706" from-port="1" to-layer="1737" to-port="0" />
		<edge from-layer="1707" from-port="0" to-layer="1708" to-port="1" />
		<edge from-layer="1708" from-port="2" to-layer="1709" to-port="0" />
		<edge from-layer="1708" from-port="2" to-layer="1720" to-port="0" />
		<edge from-layer="1709" from-port="1" to-layer="1713" to-port="0" />
		<edge from-layer="1710" from-port="0" to-layer="1713" to-port="1" />
		<edge from-layer="1711" from-port="0" to-layer="1713" to-port="2" />
		<edge from-layer="1712" from-port="0" to-layer="1713" to-port="3" />
		<edge from-layer="1713" from-port="4" to-layer="1715" to-port="0" />
		<edge from-layer="1714" from-port="0" to-layer="1715" to-port="1" />
		<edge from-layer="1715" from-port="2" to-layer="1719" to-port="0" />
		<edge from-layer="1716" from-port="0" to-layer="1719" to-port="1" />
		<edge from-layer="1717" from-port="0" to-layer="1719" to-port="2" />
		<edge from-layer="1718" from-port="0" to-layer="1719" to-port="3" />
		<edge from-layer="1719" from-port="4" to-layer="1720" to-port="1" />
		<edge from-layer="1720" from-port="2" to-layer="1722" to-port="0" />
		<edge from-layer="1721" from-port="0" to-layer="1722" to-port="1" />
		<edge from-layer="1722" from-port="2" to-layer="1725" to-port="0" />
		<edge from-layer="1723" from-port="0" to-layer="1724" to-port="0" />
		<edge from-layer="1724" from-port="1" to-layer="1725" to-port="1" />
		<edge from-layer="1725" from-port="2" to-layer="1728" to-port="0" />
		<edge from-layer="1726" from-port="0" to-layer="1727" to-port="0" />
		<edge from-layer="1727" from-port="1" to-layer="1728" to-port="1" />
		<edge from-layer="1728" from-port="2" to-layer="1729" to-port="0" />
		<edge from-layer="1729" from-port="1" to-layer="1732" to-port="0" />
		<edge from-layer="1730" from-port="0" to-layer="1731" to-port="0" />
		<edge from-layer="1731" from-port="1" to-layer="1732" to-port="1" />
		<edge from-layer="1732" from-port="2" to-layer="1735" to-port="0" />
		<edge from-layer="1733" from-port="0" to-layer="1734" to-port="0" />
		<edge from-layer="1734" from-port="1" to-layer="1735" to-port="1" />
		<edge from-layer="1735" from-port="2" to-layer="1736" to-port="0" />
		<edge from-layer="1736" from-port="1" to-layer="1737" to-port="1" />
		<edge from-layer="1737" from-port="2" to-layer="1740" to-port="0" />
		<edge from-layer="1738" from-port="0" to-layer="1739" to-port="0" />
		<edge from-layer="1739" from-port="1" to-layer="1740" to-port="1" />
		<edge from-layer="1740" from-port="2" to-layer="1743" to-port="0" />
		<edge from-layer="1741" from-port="0" to-layer="1742" to-port="0" />
		<edge from-layer="1742" from-port="1" to-layer="1743" to-port="1" />
		<edge from-layer="1743" from-port="2" to-layer="1744" to-port="0" />
		<edge from-layer="1744" from-port="2" to-layer="1747" to-port="0" />
		<edge from-layer="1744" from-port="2" to-layer="1796" to-port="1" />
		<edge from-layer="1745" from-port="0" to-layer="1746" to-port="0" />
		<edge from-layer="1746" from-port="1" to-layer="1747" to-port="1" />
		<edge from-layer="1747" from-port="2" to-layer="1750" to-port="0" />
		<edge from-layer="1748" from-port="0" to-layer="1749" to-port="0" />
		<edge from-layer="1749" from-port="1" to-layer="1750" to-port="1" />
		<edge from-layer="1750" from-port="2" to-layer="1751" to-port="0" />
		<edge from-layer="1751" from-port="1" to-layer="1754" to-port="0" />
		<edge from-layer="1752" from-port="0" to-layer="1753" to-port="0" />
		<edge from-layer="1753" from-port="1" to-layer="1754" to-port="1" />
		<edge from-layer="1754" from-port="2" to-layer="1757" to-port="0" />
		<edge from-layer="1755" from-port="0" to-layer="1756" to-port="0" />
		<edge from-layer="1756" from-port="1" to-layer="1757" to-port="1" />
		<edge from-layer="1757" from-port="2" to-layer="1758" to-port="0" />
		<edge from-layer="1758" from-port="1" to-layer="1760" to-port="0" />
		<edge from-layer="1758" from-port="1" to-layer="1789" to-port="0" />
		<edge from-layer="1759" from-port="0" to-layer="1760" to-port="1" />
		<edge from-layer="1760" from-port="2" to-layer="1761" to-port="0" />
		<edge from-layer="1760" from-port="2" to-layer="1772" to-port="0" />
		<edge from-layer="1761" from-port="1" to-layer="1765" to-port="0" />
		<edge from-layer="1762" from-port="0" to-layer="1765" to-port="1" />
		<edge from-layer="1763" from-port="0" to-layer="1765" to-port="2" />
		<edge from-layer="1764" from-port="0" to-layer="1765" to-port="3" />
		<edge from-layer="1765" from-port="4" to-layer="1767" to-port="0" />
		<edge from-layer="1766" from-port="0" to-layer="1767" to-port="1" />
		<edge from-layer="1767" from-port="2" to-layer="1771" to-port="0" />
		<edge from-layer="1768" from-port="0" to-layer="1771" to-port="1" />
		<edge from-layer="1769" from-port="0" to-layer="1771" to-port="2" />
		<edge from-layer="1770" from-port="0" to-layer="1771" to-port="3" />
		<edge from-layer="1771" from-port="4" to-layer="1772" to-port="1" />
		<edge from-layer="1772" from-port="2" to-layer="1774" to-port="0" />
		<edge from-layer="1773" from-port="0" to-layer="1774" to-port="1" />
		<edge from-layer="1774" from-port="2" to-layer="1777" to-port="0" />
		<edge from-layer="1775" from-port="0" to-layer="1776" to-port="0" />
		<edge from-layer="1776" from-port="1" to-layer="1777" to-port="1" />
		<edge from-layer="1777" from-port="2" to-layer="1780" to-port="0" />
		<edge from-layer="1778" from-port="0" to-layer="1779" to-port="0" />
		<edge from-layer="1779" from-port="1" to-layer="1780" to-port="1" />
		<edge from-layer="1780" from-port="2" to-layer="1781" to-port="0" />
		<edge from-layer="1781" from-port="1" to-layer="1784" to-port="0" />
		<edge from-layer="1782" from-port="0" to-layer="1783" to-port="0" />
		<edge from-layer="1783" from-port="1" to-layer="1784" to-port="1" />
		<edge from-layer="1784" from-port="2" to-layer="1787" to-port="0" />
		<edge from-layer="1785" from-port="0" to-layer="1786" to-port="0" />
		<edge from-layer="1786" from-port="1" to-layer="1787" to-port="1" />
		<edge from-layer="1787" from-port="2" to-layer="1788" to-port="0" />
		<edge from-layer="1788" from-port="1" to-layer="1789" to-port="1" />
		<edge from-layer="1789" from-port="2" to-layer="1792" to-port="0" />
		<edge from-layer="1790" from-port="0" to-layer="1791" to-port="0" />
		<edge from-layer="1791" from-port="1" to-layer="1792" to-port="1" />
		<edge from-layer="1792" from-port="2" to-layer="1795" to-port="0" />
		<edge from-layer="1793" from-port="0" to-layer="1794" to-port="0" />
		<edge from-layer="1794" from-port="1" to-layer="1795" to-port="1" />
		<edge from-layer="1795" from-port="2" to-layer="1796" to-port="0" />
		<edge from-layer="1796" from-port="2" to-layer="1799" to-port="0" />
		<edge from-layer="1796" from-port="2" to-layer="1848" to-port="1" />
		<edge from-layer="1797" from-port="0" to-layer="1798" to-port="0" />
		<edge from-layer="1798" from-port="1" to-layer="1799" to-port="1" />
		<edge from-layer="1799" from-port="2" to-layer="1802" to-port="0" />
		<edge from-layer="1800" from-port="0" to-layer="1801" to-port="0" />
		<edge from-layer="1801" from-port="1" to-layer="1802" to-port="1" />
		<edge from-layer="1802" from-port="2" to-layer="1803" to-port="0" />
		<edge from-layer="1803" from-port="1" to-layer="1806" to-port="0" />
		<edge from-layer="1804" from-port="0" to-layer="1805" to-port="0" />
		<edge from-layer="1805" from-port="1" to-layer="1806" to-port="1" />
		<edge from-layer="1806" from-port="2" to-layer="1809" to-port="0" />
		<edge from-layer="1807" from-port="0" to-layer="1808" to-port="0" />
		<edge from-layer="1808" from-port="1" to-layer="1809" to-port="1" />
		<edge from-layer="1809" from-port="2" to-layer="1810" to-port="0" />
		<edge from-layer="1810" from-port="1" to-layer="1812" to-port="0" />
		<edge from-layer="1810" from-port="1" to-layer="1841" to-port="0" />
		<edge from-layer="1811" from-port="0" to-layer="1812" to-port="1" />
		<edge from-layer="1812" from-port="2" to-layer="1824" to-port="0" />
		<edge from-layer="1812" from-port="2" to-layer="1813" to-port="0" />
		<edge from-layer="1813" from-port="1" to-layer="1817" to-port="0" />
		<edge from-layer="1814" from-port="0" to-layer="1817" to-port="1" />
		<edge from-layer="1815" from-port="0" to-layer="1817" to-port="2" />
		<edge from-layer="1816" from-port="0" to-layer="1817" to-port="3" />
		<edge from-layer="1817" from-port="4" to-layer="1819" to-port="0" />
		<edge from-layer="1818" from-port="0" to-layer="1819" to-port="1" />
		<edge from-layer="1819" from-port="2" to-layer="1823" to-port="0" />
		<edge from-layer="1820" from-port="0" to-layer="1823" to-port="1" />
		<edge from-layer="1821" from-port="0" to-layer="1823" to-port="2" />
		<edge from-layer="1822" from-port="0" to-layer="1823" to-port="3" />
		<edge from-layer="1823" from-port="4" to-layer="1824" to-port="1" />
		<edge from-layer="1824" from-port="2" to-layer="1826" to-port="0" />
		<edge from-layer="1825" from-port="0" to-layer="1826" to-port="1" />
		<edge from-layer="1826" from-port="2" to-layer="1829" to-port="0" />
		<edge from-layer="1827" from-port="0" to-layer="1828" to-port="0" />
		<edge from-layer="1828" from-port="1" to-layer="1829" to-port="1" />
		<edge from-layer="1829" from-port="2" to-layer="1832" to-port="0" />
		<edge from-layer="1830" from-port="0" to-layer="1831" to-port="0" />
		<edge from-layer="1831" from-port="1" to-layer="1832" to-port="1" />
		<edge from-layer="1832" from-port="2" to-layer="1833" to-port="0" />
		<edge from-layer="1833" from-port="1" to-layer="1836" to-port="0" />
		<edge from-layer="1834" from-port="0" to-layer="1835" to-port="0" />
		<edge from-layer="1835" from-port="1" to-layer="1836" to-port="1" />
		<edge from-layer="1836" from-port="2" to-layer="1839" to-port="0" />
		<edge from-layer="1837" from-port="0" to-layer="1838" to-port="0" />
		<edge from-layer="1838" from-port="1" to-layer="1839" to-port="1" />
		<edge from-layer="1839" from-port="2" to-layer="1840" to-port="0" />
		<edge from-layer="1840" from-port="1" to-layer="1841" to-port="1" />
		<edge from-layer="1841" from-port="2" to-layer="1844" to-port="0" />
		<edge from-layer="1842" from-port="0" to-layer="1843" to-port="0" />
		<edge from-layer="1843" from-port="1" to-layer="1844" to-port="1" />
		<edge from-layer="1844" from-port="2" to-layer="1847" to-port="0" />
		<edge from-layer="1845" from-port="0" to-layer="1846" to-port="0" />
		<edge from-layer="1846" from-port="1" to-layer="1847" to-port="1" />
		<edge from-layer="1847" from-port="2" to-layer="1848" to-port="0" />
		<edge from-layer="1848" from-port="2" to-layer="1900" to-port="1" />
		<edge from-layer="1848" from-port="2" to-layer="1851" to-port="0" />
		<edge from-layer="1849" from-port="0" to-layer="1850" to-port="0" />
		<edge from-layer="1850" from-port="1" to-layer="1851" to-port="1" />
		<edge from-layer="1851" from-port="2" to-layer="1854" to-port="0" />
		<edge from-layer="1852" from-port="0" to-layer="1853" to-port="0" />
		<edge from-layer="1853" from-port="1" to-layer="1854" to-port="1" />
		<edge from-layer="1854" from-port="2" to-layer="1855" to-port="0" />
		<edge from-layer="1855" from-port="1" to-layer="1858" to-port="0" />
		<edge from-layer="1856" from-port="0" to-layer="1857" to-port="0" />
		<edge from-layer="1857" from-port="1" to-layer="1858" to-port="1" />
		<edge from-layer="1858" from-port="2" to-layer="1861" to-port="0" />
		<edge from-layer="1859" from-port="0" to-layer="1860" to-port="0" />
		<edge from-layer="1860" from-port="1" to-layer="1861" to-port="1" />
		<edge from-layer="1861" from-port="2" to-layer="1862" to-port="0" />
		<edge from-layer="1862" from-port="1" to-layer="1864" to-port="0" />
		<edge from-layer="1862" from-port="1" to-layer="1893" to-port="0" />
		<edge from-layer="1863" from-port="0" to-layer="1864" to-port="1" />
		<edge from-layer="1864" from-port="2" to-layer="1865" to-port="0" />
		<edge from-layer="1864" from-port="2" to-layer="1876" to-port="0" />
		<edge from-layer="1865" from-port="1" to-layer="1869" to-port="0" />
		<edge from-layer="1866" from-port="0" to-layer="1869" to-port="1" />
		<edge from-layer="1867" from-port="0" to-layer="1869" to-port="2" />
		<edge from-layer="1868" from-port="0" to-layer="1869" to-port="3" />
		<edge from-layer="1869" from-port="4" to-layer="1871" to-port="0" />
		<edge from-layer="1870" from-port="0" to-layer="1871" to-port="1" />
		<edge from-layer="1871" from-port="2" to-layer="1875" to-port="0" />
		<edge from-layer="1872" from-port="0" to-layer="1875" to-port="1" />
		<edge from-layer="1873" from-port="0" to-layer="1875" to-port="2" />
		<edge from-layer="1874" from-port="0" to-layer="1875" to-port="3" />
		<edge from-layer="1875" from-port="4" to-layer="1876" to-port="1" />
		<edge from-layer="1876" from-port="2" to-layer="1878" to-port="0" />
		<edge from-layer="1877" from-port="0" to-layer="1878" to-port="1" />
		<edge from-layer="1878" from-port="2" to-layer="1881" to-port="0" />
		<edge from-layer="1879" from-port="0" to-layer="1880" to-port="0" />
		<edge from-layer="1880" from-port="1" to-layer="1881" to-port="1" />
		<edge from-layer="1881" from-port="2" to-layer="1884" to-port="0" />
		<edge from-layer="1882" from-port="0" to-layer="1883" to-port="0" />
		<edge from-layer="1883" from-port="1" to-layer="1884" to-port="1" />
		<edge from-layer="1884" from-port="2" to-layer="1885" to-port="0" />
		<edge from-layer="1885" from-port="1" to-layer="1888" to-port="0" />
		<edge from-layer="1886" from-port="0" to-layer="1887" to-port="0" />
		<edge from-layer="1887" from-port="1" to-layer="1888" to-port="1" />
		<edge from-layer="1888" from-port="2" to-layer="1891" to-port="0" />
		<edge from-layer="1889" from-port="0" to-layer="1890" to-port="0" />
		<edge from-layer="1890" from-port="1" to-layer="1891" to-port="1" />
		<edge from-layer="1891" from-port="2" to-layer="1892" to-port="0" />
		<edge from-layer="1892" from-port="1" to-layer="1893" to-port="1" />
		<edge from-layer="1893" from-port="2" to-layer="1896" to-port="0" />
		<edge from-layer="1894" from-port="0" to-layer="1895" to-port="0" />
		<edge from-layer="1895" from-port="1" to-layer="1896" to-port="1" />
		<edge from-layer="1896" from-port="2" to-layer="1899" to-port="0" />
		<edge from-layer="1897" from-port="0" to-layer="1898" to-port="0" />
		<edge from-layer="1898" from-port="1" to-layer="1899" to-port="1" />
		<edge from-layer="1899" from-port="2" to-layer="1900" to-port="0" />
		<edge from-layer="1900" from-port="2" to-layer="1903" to-port="0" />
		<edge from-layer="1900" from-port="2" to-layer="1952" to-port="1" />
		<edge from-layer="1901" from-port="0" to-layer="1902" to-port="0" />
		<edge from-layer="1902" from-port="1" to-layer="1903" to-port="1" />
		<edge from-layer="1903" from-port="2" to-layer="1906" to-port="0" />
		<edge from-layer="1904" from-port="0" to-layer="1905" to-port="0" />
		<edge from-layer="1905" from-port="1" to-layer="1906" to-port="1" />
		<edge from-layer="1906" from-port="2" to-layer="1907" to-port="0" />
		<edge from-layer="1907" from-port="1" to-layer="1910" to-port="0" />
		<edge from-layer="1908" from-port="0" to-layer="1909" to-port="0" />
		<edge from-layer="1909" from-port="1" to-layer="1910" to-port="1" />
		<edge from-layer="1910" from-port="2" to-layer="1913" to-port="0" />
		<edge from-layer="1911" from-port="0" to-layer="1912" to-port="0" />
		<edge from-layer="1912" from-port="1" to-layer="1913" to-port="1" />
		<edge from-layer="1913" from-port="2" to-layer="1914" to-port="0" />
		<edge from-layer="1914" from-port="1" to-layer="1916" to-port="0" />
		<edge from-layer="1914" from-port="1" to-layer="1945" to-port="0" />
		<edge from-layer="1915" from-port="0" to-layer="1916" to-port="1" />
		<edge from-layer="1916" from-port="2" to-layer="1917" to-port="0" />
		<edge from-layer="1916" from-port="2" to-layer="1928" to-port="0" />
		<edge from-layer="1917" from-port="1" to-layer="1921" to-port="0" />
		<edge from-layer="1918" from-port="0" to-layer="1921" to-port="1" />
		<edge from-layer="1919" from-port="0" to-layer="1921" to-port="2" />
		<edge from-layer="1920" from-port="0" to-layer="1921" to-port="3" />
		<edge from-layer="1921" from-port="4" to-layer="1923" to-port="0" />
		<edge from-layer="1922" from-port="0" to-layer="1923" to-port="1" />
		<edge from-layer="1923" from-port="2" to-layer="1927" to-port="0" />
		<edge from-layer="1924" from-port="0" to-layer="1927" to-port="1" />
		<edge from-layer="1925" from-port="0" to-layer="1927" to-port="2" />
		<edge from-layer="1926" from-port="0" to-layer="1927" to-port="3" />
		<edge from-layer="1927" from-port="4" to-layer="1928" to-port="1" />
		<edge from-layer="1928" from-port="2" to-layer="1930" to-port="0" />
		<edge from-layer="1929" from-port="0" to-layer="1930" to-port="1" />
		<edge from-layer="1930" from-port="2" to-layer="1933" to-port="0" />
		<edge from-layer="1931" from-port="0" to-layer="1932" to-port="0" />
		<edge from-layer="1932" from-port="1" to-layer="1933" to-port="1" />
		<edge from-layer="1933" from-port="2" to-layer="1936" to-port="0" />
		<edge from-layer="1934" from-port="0" to-layer="1935" to-port="0" />
		<edge from-layer="1935" from-port="1" to-layer="1936" to-port="1" />
		<edge from-layer="1936" from-port="2" to-layer="1937" to-port="0" />
		<edge from-layer="1937" from-port="1" to-layer="1940" to-port="0" />
		<edge from-layer="1938" from-port="0" to-layer="1939" to-port="0" />
		<edge from-layer="1939" from-port="1" to-layer="1940" to-port="1" />
		<edge from-layer="1940" from-port="2" to-layer="1943" to-port="0" />
		<edge from-layer="1941" from-port="0" to-layer="1942" to-port="0" />
		<edge from-layer="1942" from-port="1" to-layer="1943" to-port="1" />
		<edge from-layer="1943" from-port="2" to-layer="1944" to-port="0" />
		<edge from-layer="1944" from-port="1" to-layer="1945" to-port="1" />
		<edge from-layer="1945" from-port="2" to-layer="1948" to-port="0" />
		<edge from-layer="1946" from-port="0" to-layer="1947" to-port="0" />
		<edge from-layer="1947" from-port="1" to-layer="1948" to-port="1" />
		<edge from-layer="1948" from-port="2" to-layer="1951" to-port="0" />
		<edge from-layer="1949" from-port="0" to-layer="1950" to-port="0" />
		<edge from-layer="1950" from-port="1" to-layer="1951" to-port="1" />
		<edge from-layer="1951" from-port="2" to-layer="1952" to-port="0" />
		<edge from-layer="1952" from-port="2" to-layer="1955" to-port="0" />
		<edge from-layer="1952" from-port="2" to-layer="2004" to-port="1" />
		<edge from-layer="1953" from-port="0" to-layer="1954" to-port="0" />
		<edge from-layer="1954" from-port="1" to-layer="1955" to-port="1" />
		<edge from-layer="1955" from-port="2" to-layer="1958" to-port="0" />
		<edge from-layer="1956" from-port="0" to-layer="1957" to-port="0" />
		<edge from-layer="1957" from-port="1" to-layer="1958" to-port="1" />
		<edge from-layer="1958" from-port="2" to-layer="1959" to-port="0" />
		<edge from-layer="1959" from-port="1" to-layer="1962" to-port="0" />
		<edge from-layer="1960" from-port="0" to-layer="1961" to-port="0" />
		<edge from-layer="1961" from-port="1" to-layer="1962" to-port="1" />
		<edge from-layer="1962" from-port="2" to-layer="1965" to-port="0" />
		<edge from-layer="1963" from-port="0" to-layer="1964" to-port="0" />
		<edge from-layer="1964" from-port="1" to-layer="1965" to-port="1" />
		<edge from-layer="1965" from-port="2" to-layer="1966" to-port="0" />
		<edge from-layer="1966" from-port="1" to-layer="1997" to-port="0" />
		<edge from-layer="1966" from-port="1" to-layer="1968" to-port="0" />
		<edge from-layer="1967" from-port="0" to-layer="1968" to-port="1" />
		<edge from-layer="1968" from-port="2" to-layer="1969" to-port="0" />
		<edge from-layer="1968" from-port="2" to-layer="1980" to-port="0" />
		<edge from-layer="1969" from-port="1" to-layer="1973" to-port="0" />
		<edge from-layer="1970" from-port="0" to-layer="1973" to-port="1" />
		<edge from-layer="1971" from-port="0" to-layer="1973" to-port="2" />
		<edge from-layer="1972" from-port="0" to-layer="1973" to-port="3" />
		<edge from-layer="1973" from-port="4" to-layer="1975" to-port="0" />
		<edge from-layer="1974" from-port="0" to-layer="1975" to-port="1" />
		<edge from-layer="1975" from-port="2" to-layer="1979" to-port="0" />
		<edge from-layer="1976" from-port="0" to-layer="1979" to-port="1" />
		<edge from-layer="1977" from-port="0" to-layer="1979" to-port="2" />
		<edge from-layer="1978" from-port="0" to-layer="1979" to-port="3" />
		<edge from-layer="1979" from-port="4" to-layer="1980" to-port="1" />
		<edge from-layer="1980" from-port="2" to-layer="1982" to-port="0" />
		<edge from-layer="1981" from-port="0" to-layer="1982" to-port="1" />
		<edge from-layer="1982" from-port="2" to-layer="1985" to-port="0" />
		<edge from-layer="1983" from-port="0" to-layer="1984" to-port="0" />
		<edge from-layer="1984" from-port="1" to-layer="1985" to-port="1" />
		<edge from-layer="1985" from-port="2" to-layer="1988" to-port="0" />
		<edge from-layer="1986" from-port="0" to-layer="1987" to-port="0" />
		<edge from-layer="1987" from-port="1" to-layer="1988" to-port="1" />
		<edge from-layer="1988" from-port="2" to-layer="1989" to-port="0" />
		<edge from-layer="1989" from-port="1" to-layer="1992" to-port="0" />
		<edge from-layer="1990" from-port="0" to-layer="1991" to-port="0" />
		<edge from-layer="1991" from-port="1" to-layer="1992" to-port="1" />
		<edge from-layer="1992" from-port="2" to-layer="1995" to-port="0" />
		<edge from-layer="1993" from-port="0" to-layer="1994" to-port="0" />
		<edge from-layer="1994" from-port="1" to-layer="1995" to-port="1" />
		<edge from-layer="1995" from-port="2" to-layer="1996" to-port="0" />
		<edge from-layer="1996" from-port="1" to-layer="1997" to-port="1" />
		<edge from-layer="1997" from-port="2" to-layer="2000" to-port="0" />
		<edge from-layer="1998" from-port="0" to-layer="1999" to-port="0" />
		<edge from-layer="1999" from-port="1" to-layer="2000" to-port="1" />
		<edge from-layer="2000" from-port="2" to-layer="2003" to-port="0" />
		<edge from-layer="2001" from-port="0" to-layer="2002" to-port="0" />
		<edge from-layer="2002" from-port="1" to-layer="2003" to-port="1" />
		<edge from-layer="2003" from-port="2" to-layer="2004" to-port="0" />
		<edge from-layer="2004" from-port="2" to-layer="2007" to-port="0" />
		<edge from-layer="2005" from-port="0" to-layer="2006" to-port="0" />
		<edge from-layer="2006" from-port="1" to-layer="2007" to-port="1" />
		<edge from-layer="2007" from-port="2" to-layer="2010" to-port="0" />
		<edge from-layer="2008" from-port="0" to-layer="2009" to-port="0" />
		<edge from-layer="2009" from-port="1" to-layer="2010" to-port="1" />
		<edge from-layer="2010" from-port="2" to-layer="2011" to-port="0" />
		<edge from-layer="2011" from-port="1" to-layer="2012" to-port="1" />
		<edge from-layer="2012" from-port="2" to-layer="2014" to-port="0" />
		<edge from-layer="2013" from-port="0" to-layer="2014" to-port="1" />
		<edge from-layer="2014" from-port="2" to-layer="2016" to-port="0" />
		<edge from-layer="2015" from-port="0" to-layer="2016" to-port="1" />
		<edge from-layer="2016" from-port="2" to-layer="2019" to-port="0" />
		<edge from-layer="2017" from-port="0" to-layer="2018" to-port="0" />
		<edge from-layer="2018" from-port="1" to-layer="2019" to-port="1" />
		<edge from-layer="2019" from-port="2" to-layer="2022" to-port="0" />
		<edge from-layer="2020" from-port="0" to-layer="2021" to-port="0" />
		<edge from-layer="2021" from-port="1" to-layer="2022" to-port="1" />
		<edge from-layer="2022" from-port="2" to-layer="2023" to-port="0" />
		<edge from-layer="2023" from-port="1" to-layer="2024" to-port="0" />
	</edges>
	<rt_info>
		<Runtime_version value="2023.2.0-13089-cfd42bd2cb0-HEAD" />
		<conversion_parameters>
			<framework value="tf" />
			<is_python_object value="True" />
		</conversion_parameters>
	</rt_info>
</net>
